Miniproject_1/bestmodel.pth (torch, 12277 bytes, 16 tensors)

conv.0.weight f4 [3, 3, 5, 5]
000000 de 7a 32 bc 55 e2 a0 3c b9 b2 35 3d 42 11 d0 bd
       -0.010893552 0.019639174 0.044359896 -0.10159542
000010 16 53 82 3d cc 64 da 3d 7f b5 92 3d b5 73 00 3d
       0.06363504 0.10663757 0.07163524 0.031360347
000020 e5 01 95 3c da 49 35 3d 8f aa b6 3c e7 60 6d 3d
       0.01818938 0.044259883 0.022298126 0.05795374
000030 5a 0f fa 39 81 82 aa bd ee 24 b0 3d d6 55 8d ba
       0.00047695154 -0.08325673 0.08600794 -0.0010783027
000040 d1 8e d0 bc b5 80 fb ba 41 4b 17 bd 08 37 24 bd
       -0.025458725 -0.0019188138 -0.036937002 -0.040091544
000050 d8 1c ce 3d fd 0e 45 bd 8e a3 cb 3d c9 ba b6 3d
       0.10064095 -0.048109997 0.09943305 0.08922345
000060 2e 72 e6 bd 19 ba ff 3c 2c e0 4f bd 83 90 73 3d
       -0.11252247 0.031216668 -0.050750896 0.05946399
000070 8b 96 9f bd 79 2a 0a bc e5 f2 c1 3d 95 1f ae bd
       -0.07792386 -0.008432978 0.094701566 -0.085021175
000080 71 5b 79 3d 42 67 e3 3d 7a 97 fe 3c 45 53 d1 3d
       0.06087822 0.11103679 0.031078089 0.102209605
000090 d6 03 f6 bc 6c c2 d2 3d a2 26 81 bc 25 20 cb bd
       -0.030031126 0.10290989 -0.015765492 -0.099182405
0000a0 78 11 93 bd e0 d2 dc bd 73 b3 dc bd 72 b8 b2 3c
       -0.07181066 -0.10782409 -0.10776415 0.021816466
0000b0 a3 b9 c5 bd 11 3f b0 3b 86 bb 9c bd f9 90 86 3d
       -0.09654548 0.005378612 -0.07652955 0.0657062
0000c0 7e 67 1e bd 52 9f 26 bd ff e4 8b bb 46 b7 7e 3d
       -0.038672917 -0.040679283 -0.004269242 0.062186502
0000d0 fb 9e 93 3d 08 94 a6 3d ba 0d e7 bd ea 99 4c bd
       0.072080575 0.081337035 -0.11281915 -0.04995147
0000e0 95 93 0f 3c 04 08 81 3d 9e 5c 4d 3d fe d5 e0 3d
       0.008763214 0.06300357 0.050137155 0.10978316
0000f0 99 59 22 bd ae 8c ce 3d ad 0c ba bd 7d 81 d2 bd
       -0.03963623 0.10085426 -0.09084449 -0.10278604
000100 f2 50 5b bc 6e 52 aa 3d c7 df b2 3d 85 76 54 bd
       -0.013385998 0.083165035 0.087340884 -0.05187084
000110 16 de 21 3d be b1 98 bd e5 62 ad bc fa e6 42 3d
       0.03951844 -0.07455777 -0.02116532 0.047583558
000120 e1 ef bd bc c3 dd 0d ba 19 3c 8e 3d d0 ac dc bd
       -0.023185672 -0.0005411768 0.069450565 -0.10775149
000130 c8 87 09 bd 32 b5 e4 3d 73 d5 95 bb bc cc 85 3d
       -0.033576757 0.11167373 -0.0045725643 0.065331906
000140 a3 f9 c4 bd e8 77 a1 3d 5c 23 07 3d 2c 3f 6b 3d
       -0.09617927 0.078841984 0.032992706 0.057433292
000150 e7 04 8e 3d df 6a c4 3d 56 50 c1 bd 8e c6 57 3d
       0.06934529 0.095906965 -0.09439151 0.05267959
000160 19 48 71 bc 96 d2 90 bd 82 d1 c2 bc db 90 08 3d
       -0.014726662 -0.07071416 -0.023781542 0.03334127
000170 91 4c a7 bd 06 5f cd 3d 65 9d bb bd 71 69 76 3d
       -0.08168901 0.1002789 -0.0916088 0.06015915
000180 cb 18 92 3d 81 d5 67 bd d1 c7 49 3d 41 9a 80 bd
       0.07133635 -0.056600098 0.049262825 -0.062794216
000190 7b 1e 6b bc 00 93 13 3c 9d 3a c0 3d 69 8a 1c 3d
       -0.014350529 0.0090072155 0.093861796 0.038217936
0001a0 b8 4d a2 bd 4d f7 ac 3d 9f 5a c8 bd 1b 7a 85 bc
       -0.0792498 0.084456064 -0.097829096 -0.016293576
0001b0 a1 32 d9 3d 9f 6a 7a 3b 8b 4e 1b bc 3b 34 f4 bc
       0.1060536 0.0038210524 -0.009479175 -0.029810062
0001c0 49 28 b4 bd 92 01 e1 bc 5e e0 13 3d 15 c4 d4 3d
       -0.08796746 -0.02746657 0.036102645 0.10388962
0001d0 38 2a 14 3c 5f 06 03 3c 84 ad 5b bd 72 c5 3c bd
       0.009043269 0.007997124 -0.053632274 -0.046086736
0001e0 8c 6f 97 3d 6c 2a 09 3d 0d 2d 33 3d 71 a1 89 bd
       0.07394323 0.033487722 0.043744136 -0.06720246
0001f0 19 11 64 3d 63 b5 b1 bc 76 65 c1 bd df e9 88 3d
       0.055680368 -0.021692937 -0.0944318 0.06685232
000200 ea fb bf bd 42 4c da 3d 6a d3 96 bd ba a4 7b 3c
       -0.09374221 0.10659076 -0.07364543 0.015359098
000210 d9 18 db bc fb a7 fe bc e3 f9 87 bc 63 b2 26 3c
       -0.026745247 -0.031085959 -0.016598647 0.010174367
000220 8c 63 cf 3a 98 16 c7 3d 56 82 9f 3d f1 c9 2e 3d
       0.0015822514 0.09721106 0.077885315 0.042673055
000230 22 a5 d3 bd b8 69 b6 3c dd bd 87 3c ed 3f 7a bd
       -0.10334231 0.022267208 0.016570026 -0.06109612
000240 ad 66 62 3d 48 e0 db 3c 50 5f ab bd 98 9a ae bd
       0.0552737 0.026840344 -0.08367789 -0.0852558
000250 9f 82 96 3d 7d cd 7f 3c 00 6e 2c bd 0e c0 e4 bd
       0.07349133 0.015612957 -0.04209709 -0.11169444
000260 34 48 f4 3c 3d fa 77 bd 89 06 38 bc 95 79 29 bd
       0.029819585 -0.06054138 -0.011232027 -0.041375715
000270 c9 77 e6 bd 09 9c dd 3d fa 40 e2 bd 6d de b6 3d
       -0.11253316 0.10820777 -0.110475495 0.08929143
000280 c4 a1 80 bc 4a 5e 42 bd 79 76 91 3b 75 0d 70 3b
       -0.015702136 -0.047453202 0.004439172 0.0036629115
000290 07 8e 08 3d f4 a3 c6 3c ed 8b f6 3b fd c7 ba 3d
       0.033338573 0.0242481 0.0075240047 0.09120176
0002a0 6b 81 af 3d 1a c8 33 bd 7e 24 cf bc 5b 0a 30 bc
       0.085696064 -0.043892004 -0.025285956 -0.010744656
0002b0 37 3f ec 3d 2e a8 3c bd cb 38 7a bd 51 40 b6 bd
       0.11535495 -0.046058826 -0.06108932 -0.08898986
0002c0 ed fe d9 3d 00 7e dc bd 9e 50 4f bd 5e 16 cf bd
       0.10644326 -0.1076622 -0.050613992 -0.10111688
0002d0 80 e7 b7 3d 46 bb be 3d 81 52 0c bd 92 38 a3 bd
       0.08979702 0.09313063 -0.03425837 -0.07969774
0002e0 cd 68 5f 3d 39 ba f4 3c 8e 97 99 3d 22 12 d3 bc
       0.054543305 0.029873954 0.0749961 -0.025765482
0002f0 87 97 d5 3d 19 8c 46 bd 4d d9 f8 3c 54 cf b4 bd
       0.10429292 -0.04847345 0.030377055 -0.08828607
000300 c3 67 bc 3d c9 c0 da 3d 95 5a c7 bd a4 e1 cb 3d
       0.091994785 0.10681302 -0.09734074 0.09955147
000310 8e 0a 53 3c 21 86 63 bd 49 f0 7c 3d e3 e7 b3 bd
       0.012880934 -0.055547837 0.06175259 -0.08784463
000320 d8 cd a5 3d 77 8f 81 3d fa c9 0b 3c 3f 3e 15 3d
       0.08095902 0.06326192 0.008532042 0.036436316
000330 73 0d cb 3d a4 0d 93 bd 98 86 9b bc ae f4 19 3d
       0.099146746 -0.07180336 -0.018985078 0.03758686
000340 04 e1 55 3d c2 f7 22 bd 42 6c 89 bd b3 9c d3 3c
       0.052216545 -0.03978706 -0.06710102 0.025831556
000350 91 2d c4 3d 2d f4 64 bd 93 5e ad 3d ad 81 4b 3d
       0.095790036 -0.055896927 0.08465304 0.049684215
000360 af d8 2f 3d 42 b5 bc bd e1 e6 a4 3d d2 0c ac bd
       0.042931255 -0.0921426 0.08051849 -0.08400883
000370 fd c0 b4 3d ab 93 0f 3d 8c 3f 8e bd 0f 45 ed 3c
       0.08825872 0.035052937 -0.06945714 0.028963594
000380 02 fc 0e bd
       -0.034908302

conv.0.bias f4 [3]
000000 0a 84 87 3d 31 b5 76 bd 39 73 21 3c
       0.06616981 -0.06023139 0.009854131

conv.1.weight f4 [3, 3, 5, 5]
000000 79 ef e5 bc fb 06 f8 3c 5f 3f 0c bd 39 87 b5 bd
       -0.028068291 0.030276766 -0.034240123 -0.08863682
000010 15 0f 0e 3d d4 e7 e8 bd 0e 5e d3 3d 98 cf ca 3c
       0.034682352 -0.11372343 0.10320674 0.024757192
000020 05 7a 36 bc 79 a1 82 bb 39 e7 ab 3d 68 c2 7a 3d
       -0.01113749 -0.003986534 0.083937116 0.061220556
000030 ab 05 70 bd 64 c3 17 3d 7c e0 c0 bb af 25 57 3d
       -0.058599155 0.037051573 -0.0058861356 0.052526172
000040 d9 a9 0a 3d e1 49 cf 3d e2 a9 91 3b 0e f6 41 bd
       0.033853386 0.10121513 0.0044453004 -0.047353797
000050 e9 d9 e5 bd ba ba 70 bd fb b8 b2 bc c4 48 ce 3d
       -0.11223204 -0.058771826 -0.021816721 0.10072473
000060 ef e4 d6 3c e7 b9 13 bc fc e6 5d 3d 7b 19 96 bd
       0.02623221 -0.009016491 0.054175362 -0.07329079
000070 1b 3f 8f bc db bf aa bd 41 dd 89 bd 98 f5 96 bd
       -0.017486146 -0.08337375 -0.06731654 -0.07371062
000080 86 71 95 bb da 7a d7 3b 60 75 85 3d 13 c9 10 3d
       -0.004560652 0.0065759243 0.06516528 0.03534801
000090 61 42 e4 bd 03 d7 9d bc ab 80 02 bc a6 05 a1 bd
       -0.11145473 -0.019267565 -0.007965247 -0.078624055
0000a0 93 92 9b bd 3f d8 cb bd 77 a8 ee 3c ee ce f2 bc
       -0.07596316 -0.09953355 0.029133065 -0.029639687
0000b0 48 64 be bd fd ac 10 3d 36 f6 44 3d b2 45 a4 bd
       -0.09296471 0.035321224 0.048086368 -0.08021106
0000c0 bb f7 9a 3d 98 2d c3 bd 68 60 c3 3d 86 06 e8 bd
       0.07566782 -0.09530181 0.095398724 -0.11329369
0000d0 72 36 c1 bd cc b7 74 bd 81 89 36 3d 17 52 20 3c
       -0.09434213 -0.059745595 0.044564728 0.009785197
0000e0 43 15 df bd 95 20 e8 3a f5 46 9a bc e4 47 3a 3c
       -0.10892727 0.0017709906 -0.018832663 0.011369679
0000f0 19 6a b5 ba e0 ff 9b 3d d6 40 80 3d cc ae 85 3d
       -0.0013840824 0.07617164 0.062623665 0.065274805
000100 6b bd b9 bd 2d ee 8d 3d 8c ee 87 3d 9d 7c 5b bd
       -0.09069332 0.06930194 0.06637296 -0.053585637
000110 9b d1 77 3d 64 fb 9d 3d ff 5f 75 bc 9d ee bf bd
       0.06050263 0.077139646 -0.0149765005 -0.09371684
000120 cb 65 c0 bd 3e 84 08 bd b2 bb d8 bd 0b b1 c3 bc
       -0.093944155 -0.03332924 -0.10582675 -0.023888132
000130 c1 9b 31 bc 10 06 d9 bd 61 3b 27 bd 96 18 ce bd
       -0.010840357 -0.105968595 -0.040828113 -0.10063283
000140 31 82 7d bb 39 e4 e9 3d b6 8a cd 3d 68 c9 db 3d
       -0.0038682336 0.11420483 0.10036223 0.107317746
000150 f1 ab a2 3d fa c5 14 3d 0c b8 af bd 77 f7 8c 3d
       0.079429515 0.036321618 -0.08580026 0.06883138
000160 78 f4 9c 3d a8 1d 5d bd 1f f5 2c 3d b7 2d 48 3b
       0.07663816 -0.05398336 0.042225953 0.0030544826
000170 35 1c b5 3c bd c3 73 bd 9e 79 e8 3d 3f f5 47 bd
       0.022108177 -0.059512842 0.11351322 -0.04881787
000180 97 63 20 3c 03 b4 89 bd f8 a3 08 bd 4d 7e ad 3d
       0.009789369 -0.06723788 -0.033359498 0.084713556
000190 6b d0 be 3c bd 71 f3 3c fe 64 3a bd 8c 25 cc 3d
       0.02329274 0.02971732 -0.04550647 0.09968099
0001a0 97 0f a7 3d f3 c0 f0 3a 6f 4c 04 bd b2 51 a3 bd
       0.081572704 0.001836805 -0.032299455 -0.079745665
0001b0 66 7b b8 bd 0c 98 06 bc 8a f7 a0 bd 7f b4 df 3d
       -0.090079114 -0.008214962 -0.07859714 0.10923099
0001c0 25 e3 8a bd 07 6a d6 bd 4e 9d 01 3d 7f 6b 7d bd
       -0.06781606 -0.10469442 0.031644158 -0.061870094
0001d0 23 2b a6 3d 2b 10 f5 bc ac a0 e8 3d 75 98 ca 3c
       0.081136964 -0.029914936 0.11358771 0.0247309
0001e0 99 e7 6a 3d a7 e4 4d 3a c4 75 b2 bd 53 d8 a1 bd
       0.057349775 0.0007854201 -0.08713868 -0.07902589
0001f0 e0 3a b9 bc 8d 22 ba 3d 51 d1 93 bc 67 1c 6e bc
       -0.022611082 0.09088621 -0.018044146 -0.014533139
000200 62 ce 6d bd 95 dc db bd 6f ac 2d bd dd a9 e3 3c
       -0.05805815 -0.10735432 -0.042400774 0.027790958
000210 5e 75 b6 bc 1a 6a d2 3d cc 94 8d 3b 67 17 7a bc
       -0.022272762 0.102741435 0.0043207165 -0.015264369
000220 10 33 93 3d e1 cc b1 3c e1 8a f0 bc 88 95 bb bd
       0.07187474 0.02170414 -0.029363098 -0.0915938
000230 bc 9c 05 bd de 3d 3e ba f3 15 9a 3c e0 46 d0 bc
       -0.032620177 -0.0007257144 0.018809294 -0.02542442
000240 3d 60 c5 3c ef 13 ad bd b6 5a eb bd db 58 1c bd
       0.024093742 -0.08451068 -0.11491911 -0.038170677
000250 f6 b7 ce bd 78 37 8b bc 88 6f 35 3d d5 c4 cd 3d
       -0.100936815 -0.016994223 0.044295818 0.10047308
000260 78 ef 8d bd 71 65 68 3d 4d f0 f5 bb 34 64 a8 bd
       -0.06930441 0.056737367 -0.0075054527 -0.08222237
000270 ce 32 8c 3b 18 68 86 3d 00 ac c9 bb 8e a8 c5 bd
       0.0042785173 0.06562823 -0.006154537 -0.0965129
000280 25 7a 07 3c 9f 15 b8 bb 74 60 79 3d a0 00 25 3c
       0.008268868 -0.005617812 0.060883 0.01007095
000290 11 eb e8 3d c5 8b 6d 3d 9c 41 62 3d be cd 98 bd
       0.1137296 0.057994623 0.05523835 -0.07461117
0002a0 1f 27 ba 3b b6 2d 0e 3d 84 28 be 3d 45 d3 99 3d
       0.005680933 0.034711562 0.092850715 0.075109996
0002b0 e9 e4 cc bd 5d 81 d2 bd 21 df fd bc ff 17 e0 bd
       -0.10004599 -0.1027858 -0.030990185 -0.10942077
0002c0 88 5c 73 3d e2 f4 a4 3d 4c 6e d8 3d 9e 13 92 bd
       0.059414417 0.0805452 0.105679125 -0.07132648
0002d0 67 75 6a bd 3e b8 ac bc b6 3b d5 bd ef 17 95 3c
       -0.05724087 -0.021083947 -0.104117796 0.018199889
0002e0 c1 7f 57 bd c3 bb d8 3d ef 89 e0 bd 8c de a8 bd
       -0.05261207 0.10582688 -0.10963809 -0.082455724
0002f0 f1 6f 66 3d 12 48 cb bd 22 65 4d bd a3 04 be 3d
       0.0562591 -0.09925856 -0.050145276 0.09278228
000300 28 71 a6 bd 92 54 19 bd f1 c9 cd bc b4 cd 6a 3d
       -0.081270516 -0.03743417 -0.025120707 0.05732508
000310 0a 5d b4 3d a5 9f 6c 3d 7a f0 42 bc a5 ca 98 bd
       0.08806808 0.057769436 -0.011898154 -0.074605264
000320 32 4b d4 3b cc 6c ab 3d ed 8e 88 bc 35 0f b7 bd
       0.0064786905 0.08370361 -0.016669715 -0.089384474
000330 8c 56 8a 3d 34 dc 46 bd e7 ed 31 3d 92 ca c2 3b
       0.06754789 -0.048549846 0.043439772 0.0059445584
000340 bc 24 af 3d 74 d5 57 bd 88 1c 1f bd 94 34 9e bd
       0.085519284 -0.0526938 -0.03884557 -0.07724872
000350 b4 ae 19 bd 49 3c 8d 3d 39 84 18 bd c0 a9 57 bd
       -0.037520126 0.06896264 -0.037235472 -0.05265212
000360 1a 33 83 3d a4 d6 7a bc d4 cf a9 3d d5 ed ed 3c
       0.06406231 -0.015309963 0.08291593 0.029044071
000370 b1 00 98 bd 50 7b e7 bd d6 4a d6 bd be f9 00 3d
       -0.07422007 -0.11302817 -0.104634926 0.031488173
000380 e5 b0 9c bd
       -0.076509275

conv.1.bias f4 [3]
000000 a0 bb f5 3c 0e 0a d3 3d 2d 52 44 bb
       0.029996693 0.10304652 -0.0029956207

conv.2.weight f4 [3, 3, 5, 5]
000000 cb 86 ae 3d 63 90 0f 3d 90 d6 6a bc 69 92 3a bd
       0.085218035 0.035049807 -0.014333382 -0.045549784
000010 70 0c b9 bd fb 65 8a bd 8f 34 e4 3d ed 9c b9 3b
       -0.090355754 -0.067577325 0.11142837 0.005664459
000020 23 08 a2 3d fb f6 6f 3d 62 ab 8e 3d b4 49 63 bd
       0.07911708 0.05858515 0.069662824 -0.05549021
000030 28 b6 1b bd e7 c6 73 3d f7 15 ae bd 65 10 e0 bd
       -0.038015515 0.05951586 -0.08500283 -0.10940627
000040 51 0f 60 bd 6f 36 c1 3d 1c c2 df 3d b9 58 b7 3d
       -0.054702107 0.094342105 0.10925695 0.089524694
000050 b0 6a e9 3b 9e 57 28 3c f2 93 14 bd a4 3d 5f 3d
       0.007123314 0.010274796 -0.036273904 0.054502144
000060 60 d2 a7 3b 56 cc a4 bc 59 8c 8d bd 5c a4 29 3d
       0.005121514 -0.020116966 -0.06911535 0.04141651
000070 17 53 90 bd cf 5f de 3d d4 07 d1 3d 73 8e de bd
       -0.07047098 0.10858118 0.10206571 -0.10867014
000080 f7 b9 88 bd 22 c9 a3 bd 26 50 82 bb 87 a6 ac 3d
       -0.06676095 -0.079973474 -0.0039768396 0.084302
000090 ec a6 2b 3d a5 e4 de bd cc ec e5 bd 7f db 9b bb
       0.041907236 -0.10883454 -0.11226806 -0.0047563906
0000a0 22 88 27 bd 24 bc c8 bd 58 6d 44 3c 63 0d e8 3d
       -0.04090131 -0.0980151 0.01198896 0.11330678
0000b0 f0 44 eb bd 6c 48 cd bd c8 71 39 bc 26 f2 8a bd
       -0.11487758 -0.10023579 -0.0113186315 -0.067844674
0000c0 94 b7 98 bd 2d 7c c5 3d 86 7f b3 3d 9b fa ab bd
       -0.0745689 0.09642825 0.087645575 -0.083974086
0000d0 0d 69 b8 bc c3 25 75 bd 9c 66 c2 bd 1b 7d 7f 3d
       -0.02251103 -0.059850466 -0.094922274 0.06237517
0000e0 f5 bc aa 3c 62 27 8a 3d 16 09 9f 3d ab 83 b7 3d
       0.020842055 0.06745793 0.07765405 0.089606605
0000f0 09 e1 7f 3d 09 ce b9 3d ec 65 a7 bd 67 b3 3f bd
       0.06247047 0.09072501 -0.08173737 -0.04680195
000100 6f e3 71 bd 59 6b 05 bc e2 ec 85 3c ad 19 92 3b
       -0.05905479 -0.008143269 0.016348306 0.004458627
000110 83 d1 86 3d be c6 39 3d 38 35 40 3d 4c 80 90 3d
       0.0658293 0.04535555 0.046925753 0.07055721
000120 48 eb d2 bd ad fb e1 3d 59 c1 61 3d cf 48 ad bd
       -0.102987826 0.110343315 0.05511603 -0.08461153
000130 13 5f ab ba 87 9a b1 bd 2c 97 1f bd 06 db ca bd
       -0.0013074599 -0.08672052 -0.038962528 -0.09905057
000140 10 c8 cb 3d 11 ff 8d 3d 2e bf e9 bd 9b cf 12 3d
       0.09950268 0.06933416 -0.11413418 0.03584252
000150 ba 20 5a bd 7f 05 cf 3d 60 37 2b 3d 8f 2c d5 bd
       -0.053253867 0.1010847 0.041800857 -0.104088895
000160 01 bb bd bd 83 4d 8d 3d eb 0e 2b bd f1 b1 64 bd
       -0.09264184 0.0689955 -0.041762274 -0.05583376
000170 19 87 a0 bc 43 dc cc bd 21 4c c1 bc d5 1d e4 3c
       -0.01959567 -0.10002949 -0.023595871 0.027846256
000180 19 08 af 3d 8b 1f c0 bd 91 b8 c4 3d 57 10 ce 3d
       0.085464664 -0.09381016 0.09605516 0.1006171
000190 12 f1 93 bd ab be fe 3b c8 4c 96 bc a2 15 a9 3c
       -0.07223715 0.0077741942 -0.018347159 0.020640198
0001a0 59 d0 45 3d 87 cf d5 3d 40 9e b1 bd b4 4d 58 bd
       0.0482944 0.10439973 -0.08672762 -0.05280848
0001b0 ea a0 5c 3d 8f c5 d6 3d b0 2d a1 3d 4c af 0b bc
       0.053864397 0.104869 0.07870042 -0.008525681
0001c0 f4 b4 d6 bd f0 fe 0b bd 50 b7 03 ba cc 20 90 bd
       -0.10483733 -0.034178674 -0.0005024569 -0.070375055
0001d0 cc f0 3e 3d 13 85 d7 bd 06 3d 54 bd 9b 80 25 3d
       0.04661636 -0.10523429 -0.05181601 0.04040585
0001e0 e3 0a e7 3d bc ee ba bd 8d 8a 94 3d 06 83 f1 b7
       0.11281373 -0.09127566 0.07252989 -2.8790451e-05
0001f0 e1 e8 8e bc 19 77 97 3d 10 fc d9 bc 97 9b a4 3c
       -0.01744503 0.07395763 -0.02660945 0.020093722
000200 7b 4d ca 3d 61 f9 1e bd ad 64 99 3d 8c a5 38 bd
       0.098780595 -0.038812045 0.074899055 -0.045079753
000210 03 bd b4 bb 0e 08 81 3d 2c 33 1a ba ae 75 8e 3d
       -0.005515696 0.063003644 -0.0005882259 0.06956039
000220 e0 fb 6f bd b4 81 47 3d f5 6a c0 bd 6a c1 80 3d
       -0.058589816 0.04870768 -0.093954004 0.06286891
000230 ce a1 2a bc 48 bd dd bd 9b 2e 81 3c 2c ed bf bd
       -0.010414554 -0.10827118 0.015769294 -0.09371409
000240 83 bb 9f bd f5 56 84 3c d8 02 61 3d 21 ed d0 3c
       -0.07799437 0.016154746 0.054934353 0.025503697
000250 75 2f be bd 62 c0 de bd 37 86 02 3d be 49 49 bd
       -0.092863955 -0.10876538 0.03186628 -0.04914259
000260 50 41 05 3d 74 e2 60 3c 25 5b 6a bd 69 73 a0 3d
       0.03253299 0.013725866 -0.05721583 0.07834513
000270 2b 33 69 3d 56 5c d0 bd b1 97 5e 3d 27 35 05 3d
       0.056933563 -0.10173862 0.054343883 0.032521393
000280 8c 76 aa bc c9 1d 1d 3d 48 d5 a1 3d 96 92 e1 bd
       -0.02080848 0.038358483 0.07902008 -0.11014287
000290 41 ea 67 bb f3 a5 d5 bd d2 6f 40 3d 51 43 47 3d
       -0.003538743 -0.10432043 0.04698164 0.048648182
0002a0 0c 44 c8 bd 5c 93 cf 3d b6 0a b3 bd 4a fd 4e bd
       -0.09778604 0.101355284 -0.08742277 -0.050534524
0002b0 de a0 63 bd d0 51 b4 bc 8e ce a6 3c 76 6f 8d bd
       -0.055573337 -0.022011667 0.020362165 -0.06906025
0002c0 1d 3c bd 3d a1 e9 b9 3d 1e 8c 10 3c d1 85 b0 3d
       0.09239981 0.09077764 0.008822469 0.086192735
0002d0 59 0c 84 bd 8f c4 c8 3d 9a de ea 3c 4a a3 02 bd
       -0.06447668 0.098031156 0.028670598 -0.031894006
0002e0 3a fa 34 bd f9 68 97 3c 09 04 30 bd 68 5e b7 bc
       -0.044183947 0.018482672 -0.0429726 -0.022383884
0002f0 41 69 0c bc 5a 0a c4 3d 71 4c c3 3c 07 ae 53 bc
       -0.008570016 0.09572287 0.023840161 -0.012919909
000300 2f dc a5 bd 46 c5 1a bd 27 c0 22 bd 50 0a d9 3d
       -0.08098637 -0.03778579 -0.039734032 0.1059767
000310 d3 21 3d bd 8c 5b e2 bd 79 0c de ba 0a f6 74 bd
       -0.046174835 -0.110526174 -0.0016940973 -0.059804954
000320 dc 04 62 3c 31 31 97 3d 23 46 83 bd 4e de 40 3d
       0.013795104 0.073824294 -0.06409862 0.047087006
000330 f5 4d e5 3c 24 cc 93 3c dc 53 f9 3c a8 ed 67 3d
       0.027991274 0.018041678 0.030435495 0.05662313
000340 45 c7 94 bd e7 6f 81 bc c3 5a ba 3c 4a f6 99 bd
       -0.0726457 -0.01580043 0.022748357 -0.07517679
000350 45 c5 86 bd 60 af 5a bd c4 b9 0c 3d b5 d6 28 bd
       -0.06580595 -0.053389907 0.034356847 -0.041220386
000360 5d f8 f9 3c 8e 8d a2 bc d1 ff 13 bd 47 03 24 3d
       0.030513937 -0.01984289 -0.036132637 0.040042188
000370 fe 31 32 bc f2 53 ce 3c 32 ef 14 3d b1 43 ba bc
       -0.010876177 0.025186513 0.036360927 -0.022737356
000380 bf a6 8c 3d
       0.06867742

conv.2.bias f4 [3]
000000 0c e9 7c 3c 03 ba 05 bc 0c f0 06 bd
       0.015436422 -0.008162024 -0.03294377

conv.3.weight f4 [3, 3, 5, 5]
000000 6c 8b 52 3d 55 1b 52 bd bd cf 47 3c 47 01 0d 3d
       0.051402494 -0.051295597 0.012195525 0.034425046
000010 61 b4 b0 bd fe 29 e4 bc 14 04 a9 3d eb 53 dc 3d
       -0.086281545 -0.027852055 0.08252731 0.107581936
000020 a0 f7 e1 3d 59 76 2a bd b9 71 92 bd eb 0a 81 3d
       0.11033559 -0.04161677 -0.07150597 0.063009106
000030 fd 45 af 3d f4 3f 42 bd a4 e7 b3 bd 99 5b 82 bd
       0.08558271 -0.04742427 -0.08784416 -0.06365127
000040 52 a4 9d bd 60 f6 d9 bd f2 25 d8 3d 52 64 b2 3d
       -0.07697357 -0.106426954 0.105541125 0.08710541
000050 27 b9 39 3d 9d 48 b0 3d fe 83 e8 3c 0f 93 08 3c
       0.04534259 0.086076 0.028383251 0.008335843
000060 a0 9b 1b bd 1f b3 b0 bd 9b 69 47 bd 2e 92 ae 3b
       -0.037990212 -0.08627915 -0.048684698 0.0053274846
000070 96 74 37 bd 20 b1 a4 bd b5 06 97 bd 9d 71 cb 3d
       -0.04478892 -0.080415964 -0.07374326 0.099337794
000080 cb 94 2d 3d a3 51 b1 bd 17 62 9d bd 48 93 c1 3d
       0.04237823 -0.08658149 -0.07684725 0.0945192
000090 f4 a0 1b bb 0c 46 81 bd 21 41 73 3d c1 7d bd bd
       -0.0023747059 -0.063121885 0.059388284 -0.09252501
0000a0 9d 9c d1 bd 8e dd 4e 3c 70 f6 be 3c b2 da 20 bd
       -0.1023495 0.012626065 0.02331087 -0.039271064
0000b0 9f 98 9d bd a2 43 84 3d 5d 5d 37 3b 07 4b 80 bc
       -0.07695126 0.064582124 0.0027979233 -0.015660776
0000c0 d5 6a 86 3d 1c 3b 9f bd a0 e6 ba bc c7 48 e0 bd
       0.06563345 -0.07774946 -0.022815049 -0.10951381
0000d0 10 78 9f 3d 4d 14 76 3d b6 a5 6c 3d e7 ad cd bd
       0.07786572 0.060077954 0.05777522 -0.10042935
0000e0 1b c3 ec 3d f8 16 ba bc da 4b 1b bd f9 5b 48 bd
       0.11560651 -0.02271603 -0.037914135 -0.048915837
0000f0 9e 6c 86 bd c1 b4 73 bd 27 bd f9 bc 19 54 c3 3d
       -0.06563686 -0.059498552 -0.030485703 0.09537525
000100 15 9c bb bb 27 21 97 bd a6 11 5d bd f6 26 1e bd
       -0.0057253935 -0.0737937 -0.05397191 -0.038611375
000110 3e ee 8c bd b5 ce 07 bd 9d 24 9a bb 14 be c9 3d
       -0.068813786 -0.033156116 -0.0047040717 0.09850708
000120 1b f3 d5 bc 8f 0c e1 bd 2d 62 85 bc 97 cb 97 3c
       -0.026116898 -0.109887235 -0.016282165 0.018529696
000130 92 2a d4 3d 4d be b5 bd 56 09 2e bd 27 fa bc bc
       0.10359682 -0.088741876 -0.042489372 -0.0230685
000140 a2 e2 75 3d dc 40 9c 3d 1e ce a5 bd ab a8 25 bd
       0.060030587 0.076295584 -0.08095954 -0.040444057
000150 2f 50 79 bd 7b 41 fc 3b f5 2c ec bc 95 fe 90 bd
       -0.060867485 0.0076982356 -0.028830031 -0.07079808
000160 05 07 97 bd 72 8f 77 3d e2 e0 d9 bd cb ab 36 3d
       -0.07374386 0.060439534 -0.10638596 0.04459743
000170 93 a0 75 bd 2f 62 2c bd a0 1f da 3d 45 22 db bc
       -0.05996759 -0.042085823 0.10650563 -0.02674974
000180 87 78 76 bd f0 80 fa bc 7c b2 23 bc 04 1f ea bd
       -0.060173538 -0.03057906 -0.009991284 -0.11431697
000190 e3 75 5f 3c c3 21 84 3d 5d 27 6f 3d c6 b1 47 bc
       0.013638946 0.06451752 0.05838715 -0.012188381
0001a0 91 cb 98 3c a6 c9 0e 3d b5 66 e1 3d 72 4b bf 3d
       0.018651756 0.034860276 0.11005918 0.09340562
0001b0 09 5e bd 3d 34 03 92 ba 00 76 3f 3d 01 0d d7 bd
       0.092464514 -0.0011139871 0.046743393 -0.10500527
0001c0 5a ef 97 bd 8d 26 9e bd bf 5a 8e bb 17 44 85 bb
       -0.074186996 -0.07722197 -0.004344314 -0.004066955
0001d0 af 7e a6 bd 1f b1 c9 bb b5 8d da bd 58 c9 18 3d
       -0.08129632 -0.0061551477 -0.1067156 0.03730139
0001e0 17 6c ed bc c5 f2 6e bd 73 74 6a bd cb 9c 41 bd
       -0.028982205 -0.05833699 -0.05723996 -0.04726867
0001f0 01 88 bf 3c 50 a0 35 bd 37 56 9e bd 6c a4 b7 bd
       0.023380281 -0.04434234 -0.07731288 -0.08966908
000200 2e dd 18 bc 25 cf 86 bd de 66 65 3d 7e a6 0b 3d
       -0.009330077 -0.065824784 0.056006305 0.034094326
000210 b6 6b 29 3d 5d 6f 3f 3b 3b 25 cf bb a9 68 d1 3c
       0.041362487 0.0029210665 -0.006321577 0.025562601
000220 b0 3d 83 bd 1d 8c 3e 3d c6 57 ae 3b fb e1 75 3d
       -0.0640825 0.04652034 0.005320522 0.060029965
000230 7c 7a 3a bd c6 46 8f 3d 12 e5 85 3b 7c df d7 3d
       -0.045526966 0.06995921 0.004086145 0.10540673
000240 0d 07 c5 bc 6a c5 09 bc 19 fa 83 3c 7e 19 b8 bd
       -0.024051214 -0.008408884 0.016110467 -0.08989237
000250 d4 7d d0 3c 92 ad a5 bd 6a d8 57 bc b2 fe 92 3c
       0.025450625 -0.080897465 -0.013174156 0.017943714
000260 45 75 57 3d 99 57 02 bd 9d 0f b8 bb f5 34 0f bd
       0.05260207 -0.03182182 -0.0056170956 -0.034962613
000270 21 3b 6f bd aa f1 a4 3d 7e ef 5c bd a7 66 03 bd
       -0.058406 0.08053906 -0.053939335 -0.03208032
000280 94 3c af bd ce 6a b3 3d b9 59 55 bd b2 c2 30 bc
       -0.08556476 0.08760606 -0.05208752 -0.0107886065
000290 ed 82 8e 3c 34 3b 1f bd 6f f6 62 3d 24 08 cc bc
       0.017396415 -0.03887482 0.0554108 -0.024906226
0002a0 2f 0b 0b bd d0 fa 50 3d 99 a8 68 3d a4 fa c3 bd
       -0.033946212 0.051020443 0.056801412 -0.0956929
0002b0 3f 7b 8b 3d 2e 2b 44 3d ff 2e 4b bd ff e0 f5 3c
       0.06810617 0.04789274 -0.049605366 0.030014513
0002c0 8f 35 8b 3d cc c4 de bd 7e 42 ba bc c8 8d ad 3d
       0.06797325 -0.1087738 -0.022736784 0.08474308
0002d0 35 88 af bd 42 89 1b bd bf 4f a5 3d 70 4a 21 bd
       -0.08570901 -0.037972696 0.08071851 -0.03937763
0002e0 9c c7 3f 3d 41 20 aa 3d 8c f7 cf 3d 72 99 d5 bd
       0.04682122 0.08306933 0.10154638 -0.10429658
0002f0 83 46 33 3d 60 49 8b 3d e4 ef 4c 3c 07 71 22 ba
       0.043768417 0.068011045 0.012508366 -0.0006196652
000300 26 78 8b bd 78 82 ab bd 81 67 af 3d f4 8a 9d bd
       -0.06810026 -0.08374494 0.08564664 -0.07692519
000310 89 68 4d 3c 1b b5 ea bc d0 0d 37 bd 51 74 a1 3c
       0.01253713 -0.028650811 -0.044690907 0.019708784
000320 c1 ca 95 bd f1 1b b8 bd 34 9f 96 bd bb c8 b8 bd
       -0.07314063 -0.089897044 -0.07354584 -0.09022661
000330 78 56 c5 bc e8 0c d9 bd cc b0 ba 3b cd 2e ec 3d
       -0.024089083 -0.10598165 0.0056973454 0.11532364
000340 89 e8 d8 3d db 2c 96 bd 5a ae ae 3d ac c7 8b 3d
       0.105912276 -0.07332774 0.08529349 0.06825194
000350 cb 4c a3 bc 39 63 83 bd a9 24 27 bd ff 9c a0 3c
       -0.019934079 -0.064154096 -0.040806446 0.019606112
000360 0f 8f bf 3d 4e 40 b4 bd 7b 92 c2 3d 24 e2 57 3d
       0.09353458 -0.08801328 0.09500595 0.0527059
000370 a4 d4 e8 bd 42 87 02 bd 70 1b f4 3c 69 08 9f 3d
       -0.11368683 -0.031867273 0.02979824 0.07765276
000380 e6 4c a3 3c
       0.019934129

conv.3.bias f4 [3]
000000 58 41 58 bd 84 15 6f bc 55 f0 f1 bd
       -0.05279669 -0.014592532 -0.11813418

conv.4.weight f4 [3, 3, 5, 5]
000000 87 20 04 bd 65 8c 0c 3d 83 3b 56 bd 43 82 8a 3d
       -0.032257583 0.03431358 -0.05230285 0.06763127
000010 c1 98 43 bb 47 b6 9a bc 68 ef b5 3d 8a 32 9e 3d
       -0.0029845687 -0.018885745 0.08883554 0.07724483
000020 b6 db 97 bd 67 75 50 bc 7d 62 19 bd 0b 85 e7 3d
       -0.074149534 -0.012723303 -0.03744744 0.11304673
000030 67 4a dd bd 8d 63 88 3c 25 d9 c0 3d b1 7e dc 3d
       -0.10805207 0.016649032 0.09416417 0.10766352
000040 04 df ff 3b c4 2e 97 b9 ab 46 97 3d 83 50 e2 3d
       0.007808568 -0.00028835807 0.07386526 0.11050513
000050 02 3a a4 3d 28 5f 90 bc d2 b2 a3 bd 3d 76 26 bd
       0.080188766 -0.017623499 -0.07993092 -0.040640105
000060 31 18 9e 3d 70 61 90 bd 4d 2e 1b 3d 0d 09 ae 3d
       0.07719458 -0.07049835 0.037885953 0.0849782
000070 4d cd 9b bd f1 37 d2 3d 1a 46 96 bd 90 11 d2 3c
       -0.076075174 0.10264576 -0.073375896 0.02564314
000080 ac e9 23 3c 05 af 4c bd a8 54 19 3b df 01 60 3d
       0.010004442 -0.0499716 0.0023396406 0.054689284
000090 35 fa 4b bd d6 c7 9b 3b f6 06 3a bd 40 7b 01 bd
       -0.049799163 0.004754047 -0.045416795 -0.03161168
0000a0 7f 41 dc bd a5 c8 e7 3d 52 6b d6 3c 1a 99 8f bc
       -0.1075468 0.11317567 0.026174221 -0.01752906
0000b0 77 f4 0b bc 13 59 36 3c d8 91 c3 bc e5 08 aa ba
       -0.008542172 0.011129635 -0.023873255 -0.0012972621
0000c0 32 c6 28 bd 74 73 ca 3c 0d bd e5 bd b9 0f cf 3a
       -0.04120464 0.024713255 -0.11217699 0.0015797532
0000d0 81 82 cf bd db 0e 10 bd fd ea 67 bd 0a 47 2c 3d
       -0.101323135 -0.035170417 -0.056620587 0.042059936
0000e0 25 0e df bd e5 f6 c7 3d ae 51 6f bd 40 e1 4d 3d
       -0.1089137 0.09763888 -0.058427505 0.050263643
0000f0 c2 10 87 3d 06 f0 02 bc 00 d1 e4 3d 48 7b 69 3d
       0.06594993 -0.007991796 0.11172676 0.057002336
000100 a3 a5 d6 bd 0d fa f4 3b 77 35 d3 3c 28 db d9 3d
       -0.104808114 0.0074760974 0.02578233 0.10637504
000110 90 df 9c bd 40 b4 d8 bd e9 3a 53 3d 61 e6 ec 3d
       -0.07659829 -0.10581255 0.051569853 0.11567379
000120 e9 5c e9 3d d5 ad 17 3d cb 5f ba bd 6f 29 8a bd
       0.11394674 0.037031014 -0.09100302 -0.06746184
000130 e2 d4 96 3d 10 98 4a 3b 64 9f 63 3d 2f 39 e8 bc
       0.07364823 0.003091339 0.05557193 -0.02834758
000140 f5 3e ad bd fe 32 ce 3d 3b a6 c9 3d f4 07 a4 bd
       -0.08459274 0.1006832 0.09846159 -0.080093294
000150 7b e1 e0 bd 78 bc 8c bd 04 64 fb 3c bf 27 e3 3c
       -0.10980507 -0.06871885 0.03068734 0.027728913
000160 ce e6 6a bd d1 4c e2 3c 68 97 55 bc af c1 8b bd
       -0.05734902 0.02762452 -0.013036586 -0.068240516
000170 e8 02 19 3d 95 a5 db 3c 90 3c 8c bd 2d 54 d2 bc
       0.037356287 0.026812354 -0.06847489 -0.025674904
000180 96 29 6d 38 1b 46 22 bd 42 02 db bd cb 84 81 bd
       5.6543933e-05 -0.03961764 -0.1069379 -0.063241564
000190 46 c2 2f bd c1 af b9 bd fe 59 ad 3d e4 04 a8 3d
       -0.042909883 -0.090667255 0.0846443 0.08204058
0001a0 a8 13 31 3d 17 d2 ae 3d 19 e4 3b bd 53 b3 d9 bd
       0.043231636 0.08536165 -0.045871828 -0.106299065
0001b0 bb da 27 bd 1a a3 8c bc a5 56 74 bd df f1 89 3d
       -0.040980082 -0.017167617 -0.059652943 0.067355864
0001c0 d5 de d7 bc 0b d3 97 bc 51 81 55 3d 2c b3 01 bd
       -0.026351372 -0.01853325 0.05212528 -0.031665012
0001d0 70 b2 7d bc a8 b8 dd 3d a2 c4 a2 3d 9c 0d bf bd
       -0.015484437 0.10826236 0.07947661 -0.09328768
0001e0 1f 7b 81 3d 45 16 c6 bd 43 05 22 3c f4 d4 ce bc
       0.063223116 -0.09672216 0.00988895 -0.025248028
0001f0 2b 29 65 3d e1 37 c1 bd f6 91 aa 3d 07 90 b3 bd
       0.055947464 -0.09434486 0.08328621 -0.087677054
000200 58 00 40 3d 72 98 db bd 9b b4 22 3d 83 0e 8c 3d
       0.046875328 -0.10722436 0.03972302 0.068387054
000210 84 46 c1 3d 8d db b5 3d e5 28 c7 bd c6 ac bf 3b
       0.09437278 0.088797666 -0.09724597 0.0058494536
000220 54 17 b5 3c 82 2e ca 3d 15 56 b7 bd c9 5f f4 3c
       0.02210585 0.09872152 -0.08951966 0.02983083
000230 35 cd bc bd 4d 40 b4 bd 9b 32 ba bd 95 6c 9f 3d
       -0.09218828 -0.08801327 -0.090916835 0.07784382
000240 35 b4 ab 3d 9f 82 24 bc 8f 4a 46 3d b8 6d c7 bd
       0.08383981 -0.010040908 0.04841095 -0.09737724
000250 33 04 e3 bd 87 da 9d 3d 91 73 c5 3d 77 c6 b5 bc
       -0.11084785 0.077076964 0.09641183 -0.022189362
000260 11 06 a6 bb 11 44 da bc 86 cb 53 3d 45 70 72 3d
       -0.005066641 -0.026643785 0.051707767 0.0591891
000270 f2 8a 05 3c cf 97 db 3d 81 d6 2a 3d 09 55 76 3d
       0.008150803 0.107223146 0.041708473 0.06013969
000280 b1 0e 6c 3c 5d c7 d5 3d 3b 2f b0 3d 83 99 e9 3d
       0.0144078 0.10438416 0.086027585 0.11406233
000290 01 44 ea 3d f7 4c 8e bd a9 11 72 3b 14 55 95 bd
       0.11438752 -0.06948274 0.0036936796 -0.07291618
0002a0 ba 6b 48 bd 97 42 87 bd 06 2d a9 3c a0 f7 9c bb
       -0.04893086 -0.06604498 0.020651352 -0.0047902614
0002b0 c9 8e cc bd 5b 48 c6 3d f3 38 c4 bc 50 93 06 3d
       -0.099881716 0.096817695 -0.023952937 0.032855332
0002c0 b3 18 49 3d 68 fa 0b bb a0 1c 83 3d f1 b3 c1 3b
       0.04909582 -0.002135897 0.06401944 0.0059113433
0002d0 13 3f 5f bd 9f 4b 39 3d b1 02 41 bd aa 12 b8 bd
       -0.05450351 0.045238134 -0.047121707 -0.08987935
0002e0 87 93 d5 3d a6 53 d6 3c a0 a2 e9 3d c7 ea 03 3d
       0.10428529 0.026162934 0.114079714 0.032206323
0002f0 97 b4 46 bd 7e 2b e0 bd 6c dc cc 3d 0a ee 7c 3d
       -0.048512068 -0.109457955 0.1000298 0.06175045
000300 45 fd aa bd 74 9b 5f bc 82 79 be 3d 5b 63 ea 3d
       -0.083490886 -0.013647903 0.093005195 0.11444732
000310 87 f3 3c bc 2f e4 5f 3d 2e 61 76 3d 6a 23 e4 bd
       -0.011532671 0.054660972 0.06015127 -0.11139567
000320 ca 7a 53 3c 31 00 3f bd cb e2 18 3d 61 ae 88 3d
       0.012907693 -0.046631042 0.03732566 0.06673885
000330 63 c0 a0 bd 9a f3 0e bc 9e d7 a6 bc 7a f1 6c bc
       -0.07849195 -0.008725071 -0.020366486 -0.014461869
000340 a9 ce 05 3d 63 9c a9 3d 5c 24 4a bd 71 9d 05 3d
       0.03266779 0.082817815 -0.04935108 0.03262085
000350 9a e8 bd bd 92 88 bb 3d bd 1b 86 3c f6 73 c2 3d
       -0.09272881 0.09156908 0.016370649 0.09494774
000360 99 33 27 bd 91 51 d0 3c 45 c9 8b 3d d8 46 cd bd
       -0.04082069 0.025429519 0.068254985 -0.10023278
000370 65 91 c0 3d 80 22 1d 3d 68 50 e9 3d d8 40 2b bc
       0.09402732 0.03836298 0.113922894 -0.010452472
000380 73 e6 a4 3d
       0.08051767

conv.4.bias f4 [3]
000000 c9 63 3c 3d d8 ca 85 3d 33 8d b6 bd
       0.0459936 0.0653283 -0.0891365

conv.5.weight f4 [3, 3, 5, 5]
000000 64 f0 a6 3c 58 dc b8 3d fe de 05 bc 36 36 2c 3d
       0.020378299 0.09026402 -0.008170841 0.042043887
000010 ca c6 c2 bd 0b d4 43 bd df a8 1e bb b6 d4 2f 3d
       -0.09510572 -0.04780964 -0.0024209542 0.042927466
000020 48 eb eb 3d 58 32 d9 bd 49 d3 e9 bd 33 2b d5 3d
       0.11519486 -0.106053054 -0.114172526 0.1040863
000030 3c 98 3f bd 17 4d 25 3d 17 0b 85 bd 5a d3 98 3d
       -0.04677604 0.04035672 -0.06496256 0.07462187
000040 f8 36 db bd b4 3c b2 3d 9e 4c 21 bd cb 08 39 bd
       -0.10703844 0.087029845 -0.03937971 -0.0451744
000050 76 a8 d5 3d 4d f0 74 bc 42 eb ab 3c 7c 28 18 3d
       0.10432522 -0.01494987 0.020986203 0.037147984
000060 85 78 8b bb a8 fe e9 bc 19 3b 79 3d bd 7d 9b bd
       -0.0042563104 -0.028563812 0.060847376 -0.07592342
000070 54 e3 3e bd f7 3c 8c 3d ad 02 e8 bd 19 d3 75 bd
       -0.046603516 0.068475656 -0.11328635 -0.06001577
000080 d8 2c 58 3d f4 17 d6 bc ab 65 e9 3d 60 6f 83 3d
       0.05277714 -0.026134469 0.11396345 0.064177275
000090 39 e4 9e bc 36 c0 c0 3d ed 21 3a bb 91 c5 7e 3d
       -0.019395934 0.09411661 -0.002840157 0.062200133
0000a0 a1 de a5 bc a3 f4 a4 3d 6d 3b c1 bd ff e0 ad 3d
       -0.02024776 0.08054473 -0.09435163 0.0849018
0000b0 51 de f3 3c 7e f8 7b bd 1a 34 00 3d a6 90 63 bd
       0.029769095 -0.061516277 0.031299688 -0.05555787
0000c0 34 42 5a bd 62 c5 59 bd 86 7f 26 3d ce 1f b6 3d
       -0.053285792 -0.053166755 0.04064896 0.08892785
0000d0 32 93 d5 3d e0 34 d3 3d 91 5a b1 3d f2 51 eb bc
       0.10428466 0.103128195 0.08659852 -0.028725598
0000e0 b1 f3 00 3d b3 44 1f 3c 02 4d dc bc 0e f7 3a bd
       0.031482402 0.009720969 -0.026892189 -0.045645766
0000f0 2b dc b7 bd c8 cb a5 bd c6 58 9d 3d 5b e2 ce bc
       -0.089775406 -0.08095509 0.07682948 -0.02525442
000100 45 6e de 3d 5a b0 e8 bd af 2e 5b bd 5f b4 e3 3d
       0.10860876 -0.113617614 -0.053511318 0.111183874
000110 78 a8 98 bc 60 0a fe 3c dd e2 04 bd c3 3f 65 bd
       -0.01863502 0.031010807 -0.032442916 -0.05596901
000120 d8 c6 bf bc 63 2f 1c 39 a2 eb d0 3d 96 11 18 bd
       -0.023410246 0.00014894972 0.102011934 -0.037126146
000130 db ad bd bc ad 64 9b bd 0b ba 5c 3d 41 3c c3 3c
       -0.02315419 -0.07587562 0.053888362 0.023832442
000140 54 d8 7d bd 3e 2c 2d bd 35 77 53 bd 4e eb d4 3d
       -0.061973885 -0.04227852 -0.051627357 0.10396443
000150 45 19 8e bd 22 81 df 3d c3 0f d5 bd 99 c1 c4 bd
       -0.069384135 0.10913302 -0.10403397 -0.09607238
000160 fb d5 de 3d bf af 91 3d cf 2d ab 3d 01 94 b6 bd
       0.10880657 0.07113599 0.08358347 -0.08914948
000170 cb ee 9e bd 77 23 b1 bc 5b e1 c0 bd b4 23 ae 3d
       -0.0776039 -0.021623356 -0.09417983 0.085029036
000180 72 76 be 3d 61 ba e1 bd 0f fd d0 bd af 0f 72 3d
       0.092999354 -0.11021877 -0.10204517 0.05909699
000190 bc bf af bd 1c 82 81 bd 22 65 71 bd c0 b4 89 3d
       -0.08581492 -0.063236445 -0.05893434 0.067239285
0001a0 c1 ab 08 bd e9 db d1 3d 80 73 6c 3d 57 d9 66 bd
       -0.033366922 0.10247023 0.057727337 -0.056359615
0001b0 81 78 d1 bd 18 13 c3 3d fd 85 d4 3c 7f 88 30 3d
       -0.102280624 0.09525126 0.025942797 0.043098923
0001c0 ef c7 2b bd 8d bc 90 bd 87 f6 d6 bc d2 cd 81 bd
       -0.04193872 -0.07067213 -0.0262406 -0.06338085
0001d0 bb 0a 03 bc c4 24 38 bd 78 20 cd bd 1f f0 8e 3d
       -0.007998164 -0.044956937 -0.100159585 0.06979393
0001e0 3b 12 8a bd 2f 31 eb bc 9a 3f 95 3d 68 c0 99 3c
       -0.067417584 -0.028709976 0.07287522 0.018768504
0001f0 9b 7a 83 bd c8 50 b8 bd 83 b1 8f 3c 64 cc 82 bd
       -0.064198695 -0.08999783 0.017540699 -0.06386641
000200 b6 16 f2 bd 27 f3 bd 3d 71 25 9e 3d 50 03 cf bd
       -0.11820738 0.09274893 0.07721985 -0.10108054
000210 46 a2 34 bd 4d 70 72 3d 51 ef b6 3d 44 0d c6 bc
       -0.04410007 0.05918913 0.08932365 -0.024176247
000220 ca 14 49 bd 46 72 20 bc 77 ea 69 bd c2 5a 8b bd
       -0.04909209 -0.00979287 -0.05710837 -0.0680442
000230 bc 5a 79 bd ca 60 12 bc ae bd da bd 3a 10 c7 3d
       -0.060877547 -0.008934209 -0.1068071 0.09719892
000240 e8 b0 40 bd 90 3c c5 3d 8b aa 87 bd 31 cd 9d bd
       -0.04704371 0.09630692 -0.06624325 -0.07705153
000250 ea f2 39 3d cd f3 b8 bd 3e ce e0 bd bf 60 5c 3d
       0.045397677 -0.09030876 -0.109768376 0.0538032
000260 30 3a 5b 3d 0c d1 a7 3c 3f e5 87 3c 3a fd 97 bc
       0.05352229 0.020485424 0.016588805 -0.018553365
000270 3f 68 85 bc db 5f 14 bb 16 05 a5 3d e7 5c a8 bd
       -0.01628506 -0.0022640142 0.08057611 -0.08220845
000280 fe 3b c4 bd 4a 7f 68 3d 8e 9e ff 3c d8 2d 2c 3d
       -0.09581755 0.056762017 0.031203534 0.042035908
000290 cc ec 38 bd 89 a6 e0 bd 6d d4 94 bd a5 26 65 3d
       -0.045147702 -0.10969264 -0.072670795 0.055945057
0002a0 e6 d5 e3 3d 73 fb 8d bd 48 a5 af 3d 57 3d 36 bd
       0.11124782 -0.06932726 0.08576447 -0.044492092
0002b0 bf 25 bc bd bf 5f a2 3d 0b 0e ae bd a7 cc 08 bd
       -0.09186887 0.07928418 -0.08498772 -0.033398297
0002c0 5a c4 97 bd 33 7d e5 bc a1 0b b7 bc 98 f5 b5 bd
       -0.07410498 -0.028013801 -0.022344412 -0.08884734
0002d0 d4 34 c0 bd 67 9d da bc 21 fc aa bd 72 c4 74 bd
       -0.09385076 -0.026686383 -0.08348871 -0.059757657
0002e0 21 2f 37 3c 74 7d d9 3d 21 86 de bd 6d 62 1a 3c
       0.01118067 0.106196314 -0.10865427 0.009422881
0002f0 ef c4 83 bd 3e 62 1e 3d 22 1b e5 3a 6f b7 dd bd
       -0.064340465 0.03866791 0.00174794 -0.10826003
000300 27 44 80 bd 1a 6a c5 3d de cf ec bd d6 b5 85 3d
       -0.06262999 0.09639378 -0.11563085 0.06528823
000310 0c 81 ac bd bb 5c 20 bd 08 7e bd bd 4c ea 8f bd
       -0.08423051 -0.039150935 -0.09252554 -0.070271105
000320 8c 72 cd bd 16 1a 4a bd a2 90 1e 3d e9 dd e0 3b
       -0.10031614 -0.049341284 0.03871215 0.0068623913
000330 aa 57 01 bc 01 e7 a5 3c 88 c5 93 3d 4d e7 85 3d
       -0.007894436 0.020251753 0.072154105 0.06538258
000340 4a 3f 53 bd b5 1a d2 3c 99 d4 a4 bb 8c ba 20 3d
       -0.05157403 0.0256475 -0.0050302264 0.039240405
000350 69 4a af 3d 59 87 25 bd f0 f7 75 3b 91 a6 e1 bd
       0.085591145 -0.04041228 0.0037531815 -0.11018098
000360 5d 79 5d bd ad 13 ba 3c 05 6a bc 3c ca ca 94 bc
       -0.05407082 0.02271446 0.022999773 -0.018163104
000370 ff fe 50 bc 0c 94 b5 bd 7d 08 0b bd ab 06 c1 bd
       -0.012756108 -0.08866128 -0.033943642 -0.094251
000380 1f f1 89 3c
       0.016838608

conv.5.bias f4 [3]
000000 c8 82 ae 3d 78 5b 1f 3d f9 d4 63 bd
       0.08521038 0.03890559 -0.05562303

conv.6.weight f4 [3, 3, 5, 5]
000000 c8 0e cc bd 61 22 8e bc b2 55 1e bd 84 aa 3f 3d
       -0.09963757 -0.017350378 -0.038655944 0.046793476
000010 73 30 96 3d a5 7c b3 3c 2e d1 17 3d a2 16 85 3d
       0.0733346 0.021910021 0.037064724 0.064984575
000020 af b1 9b bd 7a da 70 bd 02 48 26 3c 23 52 b7 3d
       -0.0760225 -0.058802105 0.010149004 0.08951213
000030 d8 01 cf bd 89 92 b8 3d 94 a2 90 bd 94 14 82 3d
       -0.101077735 0.09012324 -0.07062259 0.06351581
000040 d6 27 8c bd b4 62 37 bd d1 d9 ac ba a3 01 6e 3d
       -0.068435356 -0.044771865 -0.0013187473 0.05810703
000050 ce 25 19 bd f9 18 8c bc 24 0c 93 bc 48 c4 5d 3c
       -0.03738957 -0.017101752 -0.017950125 0.013535567
000060 5e 73 88 bd 28 c4 85 bd 9c 49 df 3d 62 20 97 bd
       -0.066626295 -0.065315545 0.10902712 -0.073792234
000070 65 9a 73 bd c6 df a7 bd 30 19 d3 3d ac f5 92 3d
       -0.059473414 -0.08196978 0.103075385 0.071757644
000080 cc db dd bd ed 35 84 3c 06 17 94 bd ed e4 a9 bd
       -0.108329386 0.016138995 -0.07230954 -0.08295617
000090 8d 1e 96 3d b9 c3 8c bc 89 99 69 bd 6d 21 c6 bc
       0.07330046 -0.017183172 -0.05703119 -0.02418586
0000a0 b5 b0 b8 bd c1 2e 70 3d 40 14 18 3d 57 49 a4 bd
       -0.09018079 0.058638338 0.037128687 -0.08021801
0000b0 61 ca 3d bd 56 47 fc 3a c6 3c 90 bc 3d dd c3 3d
       -0.04633558 0.0019247334 -0.017607104 0.09563682
0000c0 7d 25 90 bd 66 56 96 3a 72 b7 e0 bc 86 47 8d bd
       -0.070384 0.001146984 -0.027431224 -0.06898408
0000d0 8a f2 a7 bd 75 ff ac 3d 55 ca c2 3d 57 e9 a0 3c
       -0.082005575 0.08447162 0.09511248 0.019642515
0000e0 c8 90 ca 3b 71 49 93 bd 52 c2 bf 3c 7c cf 6b 3d
       0.00618181 -0.07191742 0.023408089 0.05757092
0000f0 5c 77 5d 3d 82 7f b9 3d f4 91 47 bd f5 6b 81 3d
       0.054068908 0.09057523 -0.048723176 0.06319419
000100 b7 49 62 3d e7 fa c2 bc 40 31 ba 3d 56 95 98 bd
       0.05524608 -0.02380128 0.09091425 -0.074503586
000110 f7 f9 f6 bc d0 5d 95 3c c4 41 88 bd d9 aa ed 3d
       -0.03014849 0.01823321 -0.06653169 0.11604852
000120 64 6a e0 3d 0a 7e d5 bd 16 65 a2 3d cf d6 30 bd
       0.109577924 -0.10424431 0.07929437 -0.043173607
000130 cb e4 e5 3d 88 c5 8e bd ba 6f 7d bd e5 5c 41 3d
       0.112252794 -0.0697127 -0.06187413 0.04720773
000140 54 28 24 bd e5 f2 1d bd 1f b0 66 bd 83 10 27 3d
       -0.040077522 -0.03856172 -0.056320306 0.04078723
000150 28 7b 65 bd 9d b9 ab 3b 36 eb 0d 3a aa 23 d1 3d
       -0.056025654 0.0052406327 0.00054137723 0.102118805
000160 05 9b 58 ba 02 4c 1b bd 5c 3f a5 bd 77 3c 92 bb
       -0.0008262846 -0.037914284 -0.080687255 -0.0044627744
000170 52 7e 96 bd 15 a0 a7 bd 13 43 8d bd e7 52 73 3d
       -0.073483124 -0.0818483 -0.06897559 0.059405234
000180 41 56 3b 3d d4 88 db 3d ff 3b 86 3c ef 73 b6 3d
       0.045736555 0.10719457 0.01638603 0.08908831
000190 49 66 e6 bd be e8 a4 3d 45 66 bf 3d b5 e2 42 3d
       -0.11249978 0.080522045 0.09345678 0.047579486
0001a0 09 42 5b bd e5 cc 88 3d c9 63 81 bd 8d d7 b0 3d
       -0.053529773 0.066797055 -0.06317861 0.08634863
0001b0 bb 6d b2 bd 6c 37 a4 bd cc df b0 3d d5 32 cc 3a
       -0.08712336 -0.080183834 0.08636436 0.0015579114
0001c0 72 8f d9 3d 29 5e b8 bd 38 25 10 bc 7e 39 88 3d
       0.10623063 -0.090023346 -0.008797936 0.06651591
0001d0 45 e2 52 3c cf 67 3b bc b2 ce bb 3d 9b 7b 43 bd
       0.01287133 -0.011438324 0.091702834 -0.0477253
0001e0 a5 2b 8c 3d 83 9b f5 ba 79 10 6c bd a5 df 43 3c
       0.06844262 -0.0018738363 -0.057632897 0.0119551765
0001f0 48 a4 9e bd 24 44 bb bc 7f 45 d1 3d 26 e8 b7 bd
       -0.07746178 -0.02285964 0.102183335 -0.08979826
000200 c8 05 4d bd 42 a7 a3 3a 32 55 ab 3d c9 2d 06 3d
       -0.05005434 0.001248576 0.08365859 0.032758508
000210 a5 39 b3 bd d3 01 9e 3d e3 17 28 bd 16 ec 80 bd
       -0.08751229 0.07715192 -0.041038405 -0.0629503
000220 0d bb 8e ba 4b 56 ad bc 03 5d c3 bd ea 07 e1 3d
       -0.0010889486 -0.021159312 -0.09539225 0.109878376
000230 54 01 8f 3d 2c 88 21 bd 0c 56 b3 bc 76 48 2c bd
       0.06982675 -0.039436504 -0.021891616 -0.04206129
000240 70 07 8f bd 3e dd 30 bd b6 61 48 bb 39 22 09 3c
       -0.069838405 -0.043179743 -0.0030575818 0.008369976
000250 9e e5 1f 3d 47 db e4 3d e9 a3 9f bd 51 34 c3 bb
       0.03903734 0.11174636 -0.07794935 -0.0059571643
000260 19 b5 7d bd 03 98 a0 bd 18 db 7a bc c7 9a d7 bd
       -0.061940286 -0.07841494 -0.015311025 -0.10527568
000270 2d 9f ec 3d 80 3e e5 bd 0f ef 3c 3d 7c c6 b2 3d
       0.11553798 -0.111935616 0.04612642 0.08729264
000280 a5 18 ab bd 5a 54 ba 3d 30 6e 35 bd 27 9d 5c 3d
       -0.0835431 0.0909812 -0.044294536 0.05386081
000290 8e 7d df bd 9b d5 ce 3c b8 09 a5 bd 0c ad ad bd
       -0.109126195 0.02524834 -0.08058494 -0.08480272
0002a0 d2 72 ab 3d 7c 40 e1 bd 9b fd 28 3c 75 bd 9c bd
       0.083715096 -0.109986275 0.0103143705 -0.076533236
0002b0 65 d5 a9 3d 0d f0 6f bd 44 46 43 3d ad c9 94 bc
       0.08292655 -0.05857854 0.047674432 -0.018162573
0002c0 a5 32 c2 3d 7b be 5a 3c f2 94 2d 3d e8 4a a3 3d
       0.09482316 0.013351078 0.042378373 0.079732716
0002d0 1d 65 be 3d a2 82 e3 bc 2f 87 26 bc 0e 23 9e bd
       0.092966296 -0.027772252 -0.010164066 -0.0772153
0002e0 91 62 dd 3d 45 77 d3 bd b3 4a ec 3d 57 c3 b2 bd
       0.10809816 -0.10325483 0.11537685 -0.08728664
0002f0 f0 9d e9 3d a7 c8 cd bc 4d bf 94 bd 5a 8b e0 3d
       0.11407077 -0.025120093 -0.0726305 0.10964079
000300 da 07 15 b9 6e fb db 3d 03 10 c7 bd 1d 92 f7 bc
       -0.00014212672 0.10741316 -0.09719851 -0.03022104
000310 c1 98 00 bd 68 9e 57 bd 8e 71 8e 3d 8e 67 65 bd
       -0.031395677 -0.052641302 0.069552526 -0.05600696
000320 3c 72 72 bd be 2f de 3b 9d a6 29 3d 3e d0 d3 3d
       -0.059190974 0.0067805937 0.04141866 0.103424534
000330 00 30 f8 3b 5f cc 1e bd 26 7f c9 bd bc 92 b2 3c
       0.0075740814 -0.038769122 -0.09838705 0.021798484
000340 16 9a d4 3d 41 13 04 bd cb 6f e1 3d ad b9 db bb
       0.10380952 -0.032244924 0.11007651 -0.006705484
000350 7e 29 99 bd d9 16 84 bd dd 63 a8 3c 06 67 0c bd
       -0.07478617 -0.0644967 0.020555431 -0.03427794
000360 00 80 ce bd 57 90 d1 bd 58 6c 49 3c 5e ec 8b bd
       -0.10083008 -0.10232609 0.012293898 -0.06832193
000370 6c b6 c2 bd 7f e3 e9 bd 82 c2 ac bd 0b f6 b5 bb
       -0.095074505 -0.114203446 -0.08435537 -0.0055530122
000380 a5 b1 38 bd
       -0.04509129

conv.6.bias f4 [3]
000000 2a 78 72 be 1e 3d 2f be 41 35 26 bd
       -0.23678651 -0.17113158 -0.04057813
