Miniproject_1/bestmodel.pth (torch, 100085 bytes, 16 tensors)

encoder_1.0.weight f4 [12, 3, 3, 3]
00000000: db53 99bd 34ab 2fbe c213 503e ac0a fa3d
00000010: 7066 0e3e 9c5e 3bbd 5f73 ac3d ad86 3d3d
00000020: 3236 1abe a0b9 19be 1871 043c e667 bd3d
00000030: 7e93 d73d 2b0d 43be 1e45 95bd 74a6 1b3e
00000040: b2c4 ef3d 70c8 39be 8856 c73d e7b6 d5bd
00000050: fb93 593e 7744 853d ba3e cabd 3070 0abd
00000060: d60e 95bd 3658 2abb b6bf f1bd 0e6c 99bd
00000070: d0e7 313e 654f ffbc 594c 173e bca7 d5bd
00000080: ea0a b4bd e68a e3bd 5085 1abd f8d3 c7bb
00000090: d0c2 15be 06f8 8a3d c978 503d e41d 2e3e
000000a0: 2d1c d4bd 744e cbbd 732e 22be 7935 213e
000000b0: 5be1 403e ba06 dd3d 14d8 1b3e d902 433e
000000c0: 8614 1b3d 1080 21be 0719 8bbd 92a7 8dbc
000000d0: 92c0 e13d 6c53 32be 7647 283e 1185 0c3d
000000e0: df57 4d3d 5ee5 4a3d e97b db3b 2c37 a7bd
000000f0: 13c9 69bd 230c dfbb 5eac dc3d 8025 273e
00000100: 70c7 c93d 1fa0 b6bd 7acc 7abd ed19 303e
00000110: 3f76 fdbd 67fd cebd a426 123d 4b6f aa3d
00000120: 5ff8 d13d 05be 053e 9321 ab3d 6391 423e
00000130: 1936 a93d 2f4a 553c aa91 a13d d53d 36be
00000140: 3f78 0bbe ca7a b7bd 214d 053e 9c48 8e3d
00000150: db6f 543e 582d a73d ee80 bb3d d592 273d
00000160: 71a1 b3bc d321 8cbd 7001 303d a131 18be
00000170: 67c8 2dbe bb4c d23d 8ed9 263e 1974 b7bd
00000180: 9b42 1f3e 8b09 e93d c550 59bc 0032 c4bd
00000190: f21b 60bb 1ac2 e43c 6c34 77bd 948f 91bc
000001a0: b280 00be bf44 76bd 62cf 39be 1571 d93d
000001b0: 3dd9 433d 1df0 a7bd 879f a63a a16c d0bc
000001c0: b1a8 8bbd d0cc bcbc 9f8b c23d 254f a4bd
000001d0: 12d9 06be 359d f93d 5e3e 52be ebd2 aabd
000001e0: b313 223e b345 113e d3d6 4cbe 89e7 763d
000001f0: 5bbe 04be 3f77 7abb 84d7 86bd f318 073e
00000200: ec36 b7bd 7d31 743c 8177 243d 6e71 1d3d
00000210: c4b3 723d 1e8a dc3d 1d61 96bd e967 4ebc
00000220: 2301 f83c 621c 3fbd 323d 893d ba0c e2bd
00000230: 6859 5ebd e946 da3d 2617 f13a 3783 923d
00000240: 03c8 00bb 8ff5 843c 8b91 e73d 78d4 38bd
00000250: f2fc aa3d dc8e 8a3d a0c7 c4bd 4fdf f8bd
00000260: f96d 3bbe 4b51 203e e982 d93c 5e2a 853d
00000270: 3725 103e f418 323e c4fc 423e 0eb0 9cbc
00000280: f33b 553d eb18 a03d 2ebc 3b3e 4c0d be3d
00000290: 7f76 3dbe b6bd 323e a359 d7bd a8d1 bc3d
000002a0: 7f8f dd3c e23f 0b3e b7bb d3bd 6418 f4bd
000002b0: 7ee1 ba3c 773e 3a3e 845e a53d 867c d6bd
000002c0: 8ae6 55bd 41fb 8a3c fa6a 5c3d fd80 dcbc
000002d0: f8a5 72bd bf9d 023e 2531 23be c328 c3bc
000002e0: b9b3 22be 0ba6 083e ce48 17be d6c8 263e
000002f0: d709 e03d 73ca 0abe 2eeb 573d 1c01 1d3e
00000300: 809f 453e 1e8a b7bc dc22 a9bd db5d 4d3d
00000310: f03a 6a3d 4e0e e63d 6dfd 453d e170 89bd
00000320: 3201 9d3d f52c cdbd 2ecc 21be c6ef 30be
00000330: d620 d7bd 5087 3ebd 72ee 19be f6c1 f1bd
00000340: 77d8 2d3e 7942 a5bc 6597 383e 71cc cb3c
00000350: 215d 76bd e50e f33d 4bae a0bd 1b2d 413d
00000360: 27dc 713d 1c51 ffbd 1287 723d ec86 cbbc
00000370: c404 32bd 425e 4dbd 0a6f 12be 96c2 233e
00000380: cbef d3bd 92f7 a93c 8eff 5bbe 4f32 d2bd
00000390: 6fc5 c33d b2e8 51bb 8adb 093e d2be 373e
000003a0: 6d1a e93c c315 4cbc c9e5 d4bd 0138 063e
000003b0: 73fb 113e 4c32 e1bd 2acd febd 0803 8a3d
000003c0: 205c babd 7778 4f3e 617b ed3d 9e08 a2bd
000003d0: 0ed3 e23d c4db 4abd 474a 303d 0d9f 0f3e
000003e0: 2bbc d1bc 6584 84bd 0743 1bbe de53 2c3e
000003f0: 86d3 083e 22bd c3bc 32f5 a7bd e05c c63d
-0.07486697 -0.17155153 0.20320037 0.12209067 0.13906264 -0.045744523 0.08420443 0.046271015
-0.15059736 -0.15012217 0.008083604 0.09248333 0.10526179 -0.19047992 -0.07288574 0.15200216
0.117074385 -0.18142867 0.097333014 -0.104352765 0.21247856 0.06507199 -0.098752454 -0.033798397
-0.0727822 -0.002599252 -0.11804144 -0.07491313 0.17373586 -0.031165788 0.14775218 -0.104323834
-0.08791144 -0.11110477 -0.037724793 -0.0060982667 -0.14625096 0.06785588 0.05089644 0.1700359
-0.103569366 -0.09927073 -0.15838031 0.15743054 0.18835966 0.107922986 0.15219146 0.19044055
0.03786137 -0.15771508 -0.06791883 -0.017291818 0.11023058 -0.17414635 0.1643351 0.03430659
0.05013263 0.049535148 0.006698121 -0.0816482 -0.057076525 -0.0068068667 0.10775064 0.16322899
0.09852493 -0.089172594 -0.06123016 0.1719739 -0.12376069 -0.101069264 0.03568138 0.08322009
0.10252451 0.13060768 0.08356013 0.19000773 0.082622714 0.013018175 0.07889111 -0.17797025
-0.13620089 -0.08958967 0.13017704 0.06947443 0.20745794 0.081629455 0.09155451 0.040911514
-0.021927567 -0.06842389 0.04297012 -0.14862682 -0.16970979 0.102685414 0.16293928 -0.08957691
0.15552752 0.11378773 -0.013263886 -0.09579849 -0.0034196344 0.027924586 -0.060352728 -0.017768659
-0.12549093 -0.060124155 -0.18145517 0.10617272 0.047814596 -0.08200095 0.0012712338 -0.025442423
-0.06819285 -0.023046881 0.09499287 -0.08022908 -0.13168743 0.12188188 -0.20531604 -0.08341011
0.15827827 0.14186744 -0.20003824 0.060279403 -0.1296324 -0.003821805 -0.06584075 0.13193111
-0.089460224 0.014904377 0.04015303 0.038438253 0.05925347 0.10768531 -0.07342742 -0.012598016
0.03027398 -0.046657927 0.06701125 -0.11037584 -0.054284483 0.10658056 0.001839374 0.071539335
-0.0019650466 0.016230373 0.11307057 -0.0451245 0.08349027 0.067655295 -0.09608388 -0.12151968
-0.1830367 0.15656011 0.02655168 0.065022215 0.14076696 0.17392331 0.19041735 -0.019126918
0.052059125 0.07817253 0.18333504 0.0927988 -0.18502234 0.17455181 -0.10515144 0.09219676
0.027045963 0.13598588 -0.10338538 -0.11918715 0.022812601 0.18187891 0.08074668 -0.1047297
-0.052221812 0.01696551 0.05381296 -0.026916975 -0.05924031 0.12755488 -0.15936716 -0.023823148
-0.15888871 0.1334459 -0.14773867 0.1628755 0.10939377 -0.13553791 0.05271452 0.15332454
0.19299126 -0.022404727 -0.08258602 0.050138336 0.057185113 0.11233197 0.04833739 -0.06710983
0.076662436 -0.100183405 -0.15800545 -0.17278966 -0.1050431 -0.046515763 -0.15032366 -0.11804573
0.16977106 -0.020173298 0.18026502 0.024877759 -0.06014741 0.11868075 -0.07845744 0.047162157
0.059047844 -0.12466642 0.059210844 -0.02484461 -0.043461576 -0.05013872 -0.1430017 0.15992197
-0.10348471 0.020747934 -0.21484205 -0.10263502 0.09559142 -0.0032029566 0.13462654 0.17943886
0.028454984 -0.01245636 -0.103953905 0.13107301 0.14256077 -0.109959215 -0.12441476 0.067388594
-0.09099603 0.20260797 0.11595798 -0.079118 0.11075412 -0.04952599 0.043039586 0.14025517
-0.02560242 -0.06470565 -0.15162288 0.16828868 0.1336194 -0.023893896 -0.08201064 0.09685683

encoder_1.0.bias f4 [12]
00000000: 29ad e2bd 3f35 debd ecc5 fa3d d1b8 853b
00000010: 6ee1 203c 6ca4 163e 35f3 c1bd 859c ec3d
00000020: ed77 8fbc 24a0 d5bc 0adb 0b3e e0b1 78bc
-0.11068184 -0.1085 0.12244782 0.0040808697 0.009819372 0.1471116 -0.09470216 0.11553291
-0.01751324 -0.026077338 0.13657776 -0.015179127

encoder_2.0.weight f4 [12, 12, 3, 3]
00000000: 713c 1ebd 8720 f03d 7d4f ce3d bd31 0f3e
00000010: 4b3c 6e3a 5a56 2fb7 2cb4 c23d 9f73 41bc
00000020: 81c0 ec3c 91b5 cf3d bff2 aa3b 0602 bcbc
00000030: 1c6a 0c3e f987 a0bc 8d74 c03d f644 c63c
00000040: e9c3 223d 2b4e be3d 3527 8cbd 9459 e8bc
00000050: 8249 7cbd fea9 4c3d c3cd cf3c 0563 50bd
00000060: a4cc 8fbd 95bb 4ebc 6d42 60bd 06d8 353d
00000070: 09ee 81bd 9e8a 2a3d d28c 8c3d 526d 483c
00000080: 21e7 b13d 6867 c1bd 0950 8d3d 0788 af3d
00000090: 93de a3bc 5b3e 2f3b 0152 bebd 45d1 6cbd
000000a0: 9e82 fd3c 5814 e1b9 fac3 8ebd 5349 d4bd
000000b0: 3df0 a5bd 75bb 81bd 8bbe 32bc fbee eabc
000000c0: 8959 19bd f890 3bbd 03b8 1b3d 3f8d c3bd
000000d0: a1dc ca3c a6e9 0b3d 6543 913d e439 743d
000000e0: 78d5 eebc de12 af3d 0679 9dbd 3054 9b3d
000000f0: 0873 78bd 60f5 87bc 548f 3ebd 3d54 f4bc
00000100: b61b 903c 6d96 bc3d 4594 f23c eeae d5bc
00000110: 2c4e d23c 8fe7 21bd ac17 c43d a27d 85bd
00000120: ece7 863d 997a 0d3d c51b 8fbd c1b7 e23c
00000130: 0c5a c73d 704d b2bc 733a c73d 9659 1f3c
00000140: d4c0 523d 111d 82bd 6cce 8d3d 5f35 ba3d
00000150: 8876 ffba 6a0b 9dbd a775 25bc f6b4 f6bc
00000160: ba95 b13d 1356 803a bf1a 4ebd a646 733d
00000170: 3006 933d b15c 82bd d252 6bbd 9f29 6f3d
00000180: e105 2fbd f687 95bd bdf6 a5bd 0db1 563d
00000190: a620 e23d 2487 b8bd 54aa 9c3c 2cfa 9d3d
000001a0: e69c c53c 057d 153e e729 7e3d 5f9f f13c
000001b0: e205 40bd 4cf2 32bd 0377 8c3d c359 15bd
000001c0: 3bde ac3d cf20 6c3b 0dfc c23c ca6d b7bb
000001d0: d575 483d f5f4 16bd 8052 5d3c 7704 003d
000001e0: 24a3 d33c 824f 3cbd f3af 2f3c 981a a53d
000001f0: 5575 ba3c a58d e83c a839 09bd 4028 0a3d
00000200: 3664 96bd 83b7 573d 2d96 393d 6d21 1d3c
00000210: c5e6 613d 06d5 19bd 1e7d 08bc 43d6 1bbd
00000220: da3f 43bc a355 593d bcf0 cebd 9403 66ba
00000230: 728d d7bb f63e 313d 0099 11bd bf34 4b3b
00000240: d84c a73d 3650 9c3d d7b7 4dbd e9ef a23d
00000250: a1ed 183b fbe4 34bd b890 2a3d 4bd7 b5bc
00000260: b480 023d c105 203b cd0a 95bd 00c5 b6bd
00000270: 3efa ba3a baa8 88bc d936 98bc 09f0 3bbd
00000280: 1b62 f0bc a68b 50bd 8202 0eba bf4a 793b
00000290: 2d4a aebd de36 393b 4d51 6c3d ec8e a03d
000002a0: 86d5 b6bd 699e 3ebd 67ec a4bd 00d7 dcbd
000002b0: b175 82bd bd98 8fbc e0d4 9fbc 04c1 0a3d
000002c0: 13d6 a3bc 4cdb 163a 247c debd d5b4 b7bd
000002d0: 0c61 8c3d 7b2e 4cbc 27a1 273c 791a a7bc
000002e0: 17a7 c53c 4a06 863d 05be d63d 1080 66bc
000002f0: 642d 0f3c 3ef7 8abd d712 14bd 288d a8bd
00000300: f7a3 c7bd 87bd ee3c add5 8fbd 87ab 3ebd
00000310: 540b 9bbd a0f2 4dbb caa9 3c3c ee76 7a3d
00000320: 06df 3fbd 0261 cabd 8105 463c 959d 7a3d
00000330: 4bc7 c03c 5dea 223d 040e c1bd 07d8 ec3d
00000340: bbda 173e 2d0d 043e 7e53 3d3d 6393 353e
00000350: 014a 0d3d f4f3 26bd 5f55 873d d77e bd3d
00000360: 5b7e a53b 41b9 7b3d 90c3 1d3d 0b65 e8bc
00000370: 6e0a b43c 7183 ce3c 45a3 93bb 2ea6 6e3c
00000380: 7eab 9cbd 0912 7bbb cab0 20bc 35b5 9bbd
00000390: cd2e 48bd df87 0dbd ec81 31bd 2766 c9bd
000003a0: d273 d3bd d8c7 5bbd dd59 14bc 8b04 bdbd
000003b0: 8067 79bd efe9 be3d d64c 98bd 8861 05bc
000003c0: af88 a63d b89a ac3d 45a8 5c3d 738e 383d
000003d0: 7bac 9ebc ac52 6f3d 51f7 4bbd 41f8 4ebd
000003e0: 9022 5f3d 145e 8c3d c046 2abc 1c76 9cbd
000003f0: 4169 1ebc d6e9 3b3d 5168 c83c f314 99bc
-0.03863186 0.11724954 0.10073755 0.13983817 0.0009087964 -1.0450918e-05 0.09507021 -0.011807351
0.028900387 0.10142053 0.005216926 -0.022950184 0.13712353 -0.019596087 0.0939723 0.024202805
0.039737616 0.09292253 -0.06843416 -0.028363027 -0.06159354 0.049966805 0.02536667 -0.050875682
-0.07021454 -0.012617965 -0.05475085 0.04439547 -0.0634423 0.041636102 0.06862797 0.012233095
0.086866625 -0.09443551 0.06900031 0.08570867 -0.020003593 0.0026740048 -0.09292985 -0.057816762
0.030946072 -0.00042930502 -0.06970973 -0.10365548 -0.081024624 -0.06334583 -0.010909687 -0.028678408
-0.037438903 -0.04579255 0.038017284 -0.09548425 0.024763407 0.03415837 0.070929326 0.05962552
-0.029154524 0.085485205 -0.07689099 0.07584417 -0.060656577 -0.016596496 -0.046523407 -0.029825324
0.017591339 0.09208379 0.029611716 -0.02608439 0.02567204 -0.039527472 0.095748276 -0.06518103
0.06587204 0.034540746 -0.069877185 0.027675511 0.09733972 -0.02176544 0.09727945 0.009725949
0.051453426 -0.063532 0.069241375 0.09092211 -0.0019490281 -0.07668193 -0.010098851 -0.030115586
0.08671136 0.0009791277 -0.050318476 0.059393547 0.071789145 -0.06365336 -0.05745203 0.058389302
-0.042730216 -0.07301323 -0.08103702 0.052414943 0.110413834 -0.09010151 0.019124188 0.07713732
0.024122667 0.14598472 0.06205168 0.02949494 -0.04688061 -0.043688104 0.06858637 -0.036462557
0.084408246 0.0036030298 0.023801828 -0.0055978047 0.0489405 -0.036854703 0.013508439 0.031254258
0.025834627 -0.045974262 0.010723102 0.08061713 0.022761026 0.028387854 -0.03350225 0.03372979
-0.073433325 0.052665245 0.045309234 0.009590489 0.05515172 -0.03755667 -0.0083306115 -0.038046133
-0.011917079 0.053060185 -0.1010451 -0.0008774337 -0.006578141 0.043272935 -0.035546303 0.003100678
0.08168954 0.076324865 -0.05022415 0.079559155 0.0023334997 -0.044163685 0.04164192 -0.022197386
0.031861022 0.0024417492 -0.07277451 -0.089242935 0.0014265252 -0.016682018 -0.01858084 -0.045883212
-0.029343655 -0.05091443 -0.0005417244 0.0038038937 -0.08510242 0.0028261463 0.057694722 0.0783976
-0.08927445 -0.04653779 -0.08052903 -0.107831955 -0.06370104 -0.017528886 -0.019510686 0.03387548
-0.01999954 0.00057547237 -0.10863522 -0.08970038 0.06854448 -0.012462254 0.010231293 -0.020398365
0.024127526 0.06544168 0.10485462 -0.014068618 0.008738849 -0.06785439 -0.03615078 -0.082300484
-0.09748071 0.029143108 -0.07023177 -0.0465503 -0.0757052 -0.0031425133 0.01151509 0.061148576
-0.04684355 -0.09881784 0.012086273 0.06118544 0.02353253 0.039774287 -0.094265014 0.115646414
0.14829533 0.12895651 0.046222202 0.17732005 0.034494404 -0.040759996 0.0660808 0.092527084
0.005050463 0.06145597 0.03851658 -0.028368494 0.02197763 0.02520916 -0.004505547 0.0145659875
-0.07649897 -0.003831031 -0.009807775 -0.07602922 -0.048872758 -0.034553405 -0.043336794 -0.09833937
-0.10324825 -0.053657383 -0.009054628 -0.09229382 -0.06088972 0.09321963 -0.0743653 -0.008140929
0.08131539 0.08427948 0.05387141 0.045057725 -0.019369354 0.05842845 -0.049796406 -0.050529722
0.05447632 0.068538815 -0.010392845 -0.07639715 -0.009668649 0.0458773 0.024463804 -0.018686747

encoder_2.0.bias f4 [12]
00000000: d52f 873d 52a0 ed3c bf12 3abd 8b60 aa3d
00000010: 5f90 afbd a816 d83b ae28 873d dc22 bebd
00000020: e45a aa3d 6829 b93d 5bc2 3c3d 1209 783c
0.0660092 0.02900711 -0.045428034 0.08319195 -0.085724585 0.0065944977 0.06599556 -0.09283993
0.08318117 0.09041101 0.04608379 0.015138881

encoder_3.0.weight f4 [12, 12, 3, 3]
00000000: efb3 373c 6bb3 333d ea52 06bc 3100 693d
00000010: e16d 343d f160 d5bd 38ae d0bd 02ec 3abd
00000020: 68cf d0bd e4e8 a93d e5a8 e3bc 5392 bc3b
00000030: deea 983d 9170 653d 5807 a8bd 8432 c03c
00000040: e9df a1bd 41cd 68bd 3feb 7fbd c735 6dbd
00000050: 3824 93bd 4818 0d3d e022 93bd 40cf 2c3d
00000060: 464f 60bd d043 993d 25c9 9a3d ae7e c3bc
00000070: af90 5dbd 11f7 043c 3859 99bd 6809 883d
00000080: 56e2 0b3d f2c6 f2ba 5866 733d b8ca cc3c
00000090: 803e 9dbb 4c67 8b3d b7b8 e73c f917 f9bc
000000a0: 5602 a8bd 3ebe b83b 3440 333c d33b 06bc
000000b0: 24d9 473d b43e afbd 64e2 77bc 9e28 a23d
000000c0: e2be e1bd b858 803d c0fc 0e3d 492d 083d
000000d0: d780 213d e29e acbd c2cf 5bbd f247 bfbc
000000e0: fd88 a33d 3cb0 e53c 7ed9 8a3c 4c87 433d
000000f0: 08d3 3fbc eadf 7c3d 0a7b 92bc 01aa 133d
00000100: c98e 52bd c197 243d f580 24bc af76 753d
00000110: ead1 c8bc cd74 91bd ef33 07bd 18a9 d6bd
00000120: e090 4f3d 331b 0a3e 2a05 4a3e a52d 8d3d
00000130: dbef b33d 2a2a 0d3c 5628 a0bb 7b7d 9a3d
00000140: 7a3a a83d 516a c0bd 5220 8dbd b799 74bc
00000150: 9a21 8fbd d552 a0bd 426c 523c 46de 653d
00000160: eeaa 9cbd 6f00 863d f78a a1bd e16a 3cbc
00000170: e31e e7bc 0f57 70bc af9b 193a 138e 603d
00000180: 7a7d 3bbd 70bc b7ba 6713 a9bd d4fa 8abd
00000190: 7726 1c3c c8b3 753d b613 b43c 600a 4f3d
000001a0: 5558 793c 7717 8a3d 9c6b 84bb 65c8 4a3c
000001b0: a2af 5e3d f2c0 61bd d6ce f0bc fbd0 1c3d
000001c0: 7f87 67bc 5f15 193d 5721 6ebd 8a80 21bd
000001d0: 7bb6 6b3c 26e5 933d aa03 34bd ad52 eebc
000001e0: 3f4a db3c d9bb bdbd 7a7d 24bd ef34 07bd
000001f0: 3822 b8bd c924 abbc c149 af3b 66ba 84bc
00000200: 3db4 8fbd 3773 483d 2c2d f43b 1f79 2fbb
00000210: 2099 b93c 61b3 8f3b 5d1e 8dbd 2b17 893d
00000220: aafd 7cbd a2f2 ce3c fae9 9abd aed6 e6bc
00000230: 246c d4bc dad6 393d 07d3 edbc 0e2e 873d
00000240: 39a0 273d 9b21 7e3d c6be 14bd 5aa2 fcbc
00000250: d6fc bcbb 5c82 2d3c 0ae5 e1bc 14fc bcbd
00000260: 9e24 ff3c 5c54 b3bd 1b95 9cbd 5bdb a03d
00000270: 5ee8 aabd e056 c9bc 42fe 2fbc 83cb 6a3d
00000280: 9761 be39 1e18 51bd 1f61 7e3d 6fec bbbc
00000290: c23e aa3d 4247 b3bd 843a e1bc 1580 afba
000002a0: 0375 a83d 0755 9d3d ec6b 2b3c 4c42 77bc
000002b0: f81c a0bc 193e ebbb c694 aabd a0ba cabd
000002c0: c1c0 13bd ff0a aa3d 30fe d13c 8d4c a73d
000002d0: ae02 00bc 11be acbd c97e a1bc e1dd a6bc
000002e0: 7865 b4bd 722a 073c 2b72 1ebb 1172 d7bc
000002f0: 2c46 0a3d f6da 843d a24c a4bd 9349 21bd
00000300: 45e5 81bd 3dde 7dbc 667a 763d 747e ac3b
00000310: 8e52 eabb d827 2b3d dfa4 d63b 744e 9abd
00000320: fff5 7dbd c3a2 fdbc 90b9 01bd 5edd 25bc
00000330: 8d36 41bd 9b95 283d f37a 5c3d 49b9 07bd
00000340: fc97 243d a5c9 90bd 2822 e7bc 7f5f c0bd
00000350: c5a2 0ebd 131b 993d 389d 0fbd 58b5 7bbd
00000360: e3fc 353b 0f8d 7dbd 4d18 c0bc 456f b53b
00000370: 1a1d bbbd 5e48 373d 1123 963d 0d62 4f3d
00000380: eaf9 a23d 6ebf 76bd d7d8 06bd c2bf 4a3d
00000390: cbb0 29bd e41b 483d 7d9b 153d e41e 2f3d
000003a0: f51b d5bd 34b4 71bd b160 2b3a d457 473d
000003b0: ef14 3ebc 0f54 8d3d a02d a43d ae31 abbd
000003c0: c9a9 f9bc 111c 98bd 864d 673a ef48 863d
000003d0: 0850 f73b 5b11 983d 98e2 5b3c e754 17bd
000003e0: 74da 3fbd 572e 833d 9eb4 d7bc 4096 dbbc
000003f0: 8329 a5bd 9a7f 343d 7ed3 5b3c 3bc6 54bc
0.011212333 0.04387228 -0.008198479 0.05688495 0.0440501 -0.10418881 -0.101894796 -0.04563523
-0.101958096 0.082963735 -0.027790496 0.005754748 0.07466672 0.056015555 -0.08204526 0.023461588
-0.079040356 -0.05683637 -0.062480208 -0.057912614 -0.071846426 0.034446985 -0.07184386 0.042189837
-0.0547631 0.07483637 0.075578965 -0.023864117 -0.05409306 0.008115546 -0.0748772 0.06642419
0.034151398 -0.0018522425 0.059423774 0.024999008 -0.0047987103 0.06806812 0.028286321 -0.030406939
-0.082035705 0.005637913 0.0109406 -0.008192974 0.048791066 -0.085568815 -0.015129659 0.07917903
-0.11022736 0.06266922 0.03490901 0.033246312 0.039429512 -0.08428742 -0.05366493 -0.023349736
0.07985113 0.028038137 0.016949411 0.04773645 -0.011708029 0.06173698 -0.017880935 0.0360508
-0.0514057 0.040183786 -0.010040511 0.05992764 -0.024514157 -0.07102356 -0.033008512 -0.10481471
0.050675273 0.13486938 0.19728532 0.06893472 0.08785983 0.00861601 -0.004887621 0.07543465
0.082142785 -0.09395278 -0.0689093 -0.014929227 -0.06988831 -0.07828299 0.0128431935 0.05612018
-0.0764979 0.065430515 -0.078878336 -0.011500091 -0.02821297 -0.014669194 0.00058596855 0.054822993
-0.04577396 -0.0014017951 -0.08255654 -0.06786123 0.009530655 0.059985906 0.021982055 0.050547004
0.015218814 0.06742757 -0.0040411483 0.012376879 0.054366715 -0.055115648 -0.029395502 0.038285237
-0.014131426 0.037373897 -0.058137264 -0.039429225 0.014386768 0.07221441 -0.043948807 -0.029092157
0.026768802 -0.09264345 -0.040158726 -0.033009466 -0.08990902 -0.020891564 0.0053493683 -0.016202163
-0.070167996 0.048938002 0.007451674 -0.0026775075 0.022656024 0.0043853973 -0.06890557 0.06693872
-0.06176535 0.02526218 -0.07564159 -0.02817854 -0.025930472 0.045370914 -0.02903129 0.06600581
0.040924285 0.062043767 -0.03631475 -0.030839134 -0.005767445 0.010590162 -0.027575035 -0.092277676
0.03114539 -0.08756325 -0.07645627 0.07854339 -0.08345102 -0.024577558 -0.010741772 0.05732299
0.00036312334 -0.05104839 0.06210434 -0.022939889 0.08312751 -0.08753826 -0.027493723 -0.0013389612
0.08225443 0.07682233 0.010462742 -0.01509149 -0.019545063 -0.0071790335 -0.083291575 -0.09898877
-0.036072496 0.083028786 0.025633901 0.08168898 -0.007813139 -0.0843469 -0.019713776 -0.020369472
-0.08808416 0.008249866 -0.0024176936 -0.026299508 0.033758327 0.06487076 -0.08022429 -0.039376806
-0.06342558 -0.01549488 0.060175322 0.005264098 -0.0071509546 0.041786045 0.006550416 -0.07534495
-0.06200218 -0.0309614 -0.031671107 -0.010123579 -0.047171164 0.0411583 0.05382819 -0.033135686
0.040184006 -0.07069711 -0.02821453 -0.093932144 -0.034823198 0.07475867 -0.035062045 -0.06145224
0.002776914 -0.061902102 -0.023449088 0.005536946 -0.0913641 0.04474675 0.07330907 0.050630618
0.079578236 -0.060241155 -0.03292164 0.04949928 -0.04142837 0.048854724 0.03652524 0.04275407
-0.10405723 -0.059009746 0.00065375405 0.048667744 -0.011601671 0.069007985 0.08016515 -0.08359085
-0.030476468 -0.07427228 0.00088235026 0.0655688 0.0075473823 0.07425185 0.013420723 -0.036946204
-0.046839193 0.06405323 -0.026331242 -0.026805043 -0.08064558 0.044067003 0.013417123 -0.012986715

encoder_3.0.bias f4 [12]
00000000: e030 f4bc 399a b6bd 1455 f93c a32f 02bd
00000010: 443c 9cbd 38f2 eb3c f2e9 8a3d aaa0 57bd
00000020: 5660 85bd 034f 2a3d fa59 2c3c 6dec 783d
-0.029808462 -0.089161344 0.030436076 -0.03178371 -0.07628682 0.028802022 0.06782903 -0.052643456
-0.06512515 0.041579258 0.010519499 0.06077235

inter_layer.0.weight f4 [12, 12, 3, 3]
00000000: e2a1 b9bd aab3 55bd bcb0 a0bd a563 2e3d
00000010: 8572 7b3d 3878 a2bc 1b96 d3bb 5247 a3bd
00000020: 6910 92bd 1c5d 983c b4b8 8bbd d072 4cbc
00000030: 774b 2abd acf0 f53c 48a2 253c e06c 1cbb
00000040: 0058 6d38 3b39 b53d 5465 c9bd bb72 433d
00000050: 9d8c b1bd 7f2a e63b f6cf 85bd 36b0 32bd
00000060: af10 16bd 1754 56bd 63e0 b3bd 2e3b 5dbd
00000070: a2de f03c e195 cfbd de7e a7bd 3ea8 963d
00000080: 7354 8fbd c555 113c ba16 bcbd 4c7f 3fbb
00000090: d475 06bd db57 2cbd 9a27 003d 1419 8abc
000000a0: 5874 b4bd f4da fb3c e3ad a8bd 02c3 693d
000000b0: e4e5 99bd 0015 9239 7589 d8bd 68fc d1bc
000000c0: 4708 b9bd 5682 2f3b 5bb3 a53d dd74 ce3b
000000d0: 8036 0c3d e9cb 2dbd 4947 403b 1d1e 583d
000000e0: dbad c7bd 45b1 97bd 9505 083d f9d6 b7ba
000000f0: 17c9 02bd 4156 1cbc 53b3 5dbd 88d4 b73b
00000100: 4757 623d fc78 ef3c 1264 513d 261e 5e3d
00000110: 56e1 61bd 80fb aebd c0a7 723b ec40 8a3c
00000120: bb86 94bd 2271 703d b3ea 4bbd 0025 8dbd
00000130: bd8a b03d 5ed3 083d 2d74 af3d c360 973d
00000140: c3bd b13d 252e e5bb 0f8a acbc 7f26 a9bd
00000150: 9234 33bd 02d0 bdbd 2f2b 813c a376 7b3d
00000160: 815f 913d 4637 b73c f3d3 85bd 7cb5 4b3d
00000170: 4c30 a0bd 889a 0abb 540f b4bc 9f20 88bc
00000180: 8952 c93c 20a4 dfbd 6bf3 6b3d ae93 523d
00000190: f26c 733c 90b8 c13c 303a 8e3d 3096 7c3d
000001a0: 5206 05bd bcb8 963d e081 06bd f132 693d
000001b0: 9e27 633c dab3 183d 955d c43d 717f abbd
000001c0: 2293 893c 39ae 973d a2f6 3ebb 6de0 4c3d
000001d0: e046 013d dd65 9e3d ff2e 4e3c e2b9 193d
000001e0: 3bc5 ce3c bd70 853d ebc0 9cbd 1d96 a43d
000001f0: 1c0c 96bd a37d f5bb cc02 13bd 7709 683d
00000200: 8028 7d3d c3f3 5dbd 0931 6b3d b32b 97bd
00000210: de50 30bc f44f f2bc 9aa0 9bbd 8495 743d
00000220: b8b5 c0bd 7772 5fbd ab7d 55bd 5d61 cbbd
00000230: 50a2 97bd f7d0 3ebd 9884 293d 4ba5 36bd
00000240: 79cb a7bd c257 b1bd 0fed b63d b855 19bc
00000250: 0082 80bb 0c23 aabc bcaa 42bd 8c9f c53c
00000260: fa3b 03bd 2ae1 8bbd 9ee5 9fbc 1f9d fa3b
00000270: 923e 7b3d 725b d73c a552 87bd 3533 033d
00000280: 7387 bbbb 74b9 b2bc a984 3fbd 2480 5d3d
00000290: c68a 8dbd 3463 023d c67d 393c 569c e43a
000002a0: 33b4 ac3d 1590 8fbd e743 10bd 13de c63c
000002b0: 86eb a43c 32c1 9fbd 20d0 073c 868c b6bd
000002c0: 3663 4d3d 1d1d 88bd 129b 2c3c 5444 90bc
000002d0: ab21 a0bd f770 a53d f66d 173d 38ec 47bc
000002e0: 9125 b53d 1014 8a3b dc2b 9dbc 882a 81bc
000002f0: 32b4 193d 6bf2 983d bf9c 973c f0c0 2dbd
00000300: d96c 8bbd c1c0 603b 567f 843d e3fe 9c3d
00000310: c57b 3fbd de76 3bbd d1c8 c4bd 74ef 7cbd
00000320: 9797 b3bc 6e29 60bd 188c a6bc dcb5 c0bd
00000330: 3e0c 5cbb f36c 1dbd d36e 05bc ac7c 9b3d
00000340: 7d8a d1bd 14bc 823a fba7 c4bd f45e a0bd
00000350: f7e7 923d 84e8 8d3d 2f43 923d 5333 3dbd
00000360: 59f0 83bc 6ece a9bd 37b8 14bd 8018 5f3d
00000370: 6a85 47bd 3b3d a2bd a832 a4bc ac34 dd3a
00000380: e1e6 a83d e497 c8bd 3d18 76bd 02db 793d
00000390: 075f 96bd ffe7 7fbd 011f 0e3d 6e8b 70bc
000003a0: 5045 c33d ec13 a83d 788f a83d 45d7 25bd
000003b0: 3f5f 923c 3274 9a3d aac6 09bc 7bca 86bd
000003c0: c7db 7f3b e148 c4bd ccc3 b3bd a857 943d
000003d0: a3ee 773d fca9 6ebc 08b5 5b3b 2518 75bc
000003e0: dadd 3a3d a28e d43b 2d7b 6abd ab6e babd
000003f0: 15cd c23d 8013 20bb 3938 b43d eb7a 80bd
-0.0906408 -0.052173294 -0.078462094 0.042575497 0.06138851 -0.019832715 -0.006457103 -0.07972588
-0.07132036 0.018599086 -0.06822339 -0.012478545 -0.041575875 0.030021988 0.010109492 -0.0023868605
5.658716e-05 0.088488065 -0.0983378 0.047716837 -0.08669398 0.007024109 -0.06533806 -0.04362508
-0.036637004 -0.052326288 -0.08783033 -0.054011516 0.029403035 -0.10136009 -0.08178495 0.073563084
-0.06998529 0.008870547 -0.09184022 -0.0029220162 -0.032827213 -0.042075973 0.031287767 -0.016857661
-0.08811253 0.030744053 -0.08236291 0.05707074 -0.07514551 0.00027862936 -0.10573093 -0.025633052
-0.09034782 0.0026780567 0.0809085 0.0063005523 0.034231663 -0.042430792 0.0029339364 0.052763093
-0.09749957 -0.07406858 0.03320845 -0.0014025859 -0.031930055 -0.009542049 -0.054126095 0.0056100525
0.055259015 0.029232495 0.051120825 0.05422797 -0.055146538 -0.085440636 0.0037026256 0.01687666
-0.0725226 0.05870164 -0.049784373 -0.06891823 0.08620212 0.0334047 0.08567081 0.07391503
0.08678772 -0.0069940262 -0.021061925 -0.08259296 -0.043751307 -0.0926819 0.015767662 0.061392438
0.07098294 0.022365224 -0.06534567 0.049733624 -0.07821712 -0.0021149237 -0.021979965 -0.016617117
0.024575489 -0.10919976 0.05760519 0.05141037 0.014857518 0.023647577 0.06944692 0.061666667
-0.03247673 0.07359454 -0.032838702 0.056933347 0.013864426 0.037280895 0.09588162 -0.08373917
0.016793791 0.07406277 -0.0029138704 0.050018717 0.031561732 0.07734273 0.012584447 0.037530787
0.025240531 0.06515644 -0.07653984 0.08036444 -0.073265284 -0.0074917837 -0.03589134 0.05664965
0.061806202 -0.054187547 0.05741981 -0.07381382 -0.010761468 -0.02957914 -0.07598992 0.0597129
-0.0940966 -0.05455252 -0.0521218 -0.0993068 -0.074040055 -0.046586003 0.041386217 -0.04459123
-0.08193106 -0.086593166 0.08931934 -0.009358816 -0.003921747 -0.020768665 -0.047526106 0.02412393
-0.03203962 -0.06830056 -0.01951867 0.007648125 0.06133897 0.026288722 -0.0660756 0.032031257
-0.005722934 -0.021816947 -0.046757374 0.054077283 -0.069112346 0.03183289 0.011321491 0.0017441611
0.08432808 -0.07009903 -0.035221007 0.024275815 0.020131838 -0.07800521 0.008289367 -0.089135215
0.050143443 -0.06646178 0.0105350185 -0.017610706 -0.07818922 0.08078187 0.0369701 -0.012202315
0.08845056 0.0042138174 -0.019185953 -0.01576735 0.037525363 0.074681126 0.01850736 -0.042420328
-0.068078704 0.0034294578 0.064696 0.07665803 -0.046748895 -0.045767657 -0.09608615 -0.061751798
-0.02192287 -0.05472701 -0.020330474 -0.09409687 -0.0033576633 -0.03843398 -0.008144098 0.07592139
-0.10231493 0.0009974265 -0.09602352 -0.07830611 0.0717315 0.069291145 0.071417205 -0.046191525
-0.016105818 -0.082913265 -0.036308493 0.054466724 -0.048711218 -0.07921835 -0.020043686 0.0016876659
0.08247162 -0.09794596 -0.06008171 0.060999878 -0.07342344 -0.062477108 0.034697536 -0.01468168
0.09534705 0.08206925 0.082304895 -0.0404885 0.017867683 0.07541694 -0.008409182 -0.06581589
0.003904091 -0.09584213 -0.0877758 0.072432816 0.060530316 -0.014566895 0.003352465 -0.01495937
0.04562173 0.0064867297 -0.057246376 -0.091031395 0.095117725 -0.0024425685 0.08799786 -0.06273445

inter_layer.0.bias f4 [12]
00000000: 4156 73bd 3d4b f2bc 1ae7 6fbd 64d0 7d3d
00000010: a80f 5ebd a279 3dbd c60b bd3c 99b8 d23c
00000020: 0c6a 4dbd 90ec 8b3d 38e0 5d3b cf85 16bc
-0.05940843 -0.029576892 -0.058570005 0.061966315 -0.05421415 -0.046258576 0.023076903 0.025722789
-0.050149962 0.0683223 0.0033855569 -0.009187176

decoder_3.0.weight f4 [24, 24, 3, 3]
00000000: 808c 41bd e6da 593d 50b6 063c 4e14 213d
00000010: 4d35 853c fa4c 20bc 4000 fdbc e686 2d3d
00000020: 4654 873c 1ce7 abbc 4fa5 abbc 9214 22bc
00000030: c13b 41bd 1561 97bc 119c 3fbc 121d d3bc
00000040: 92f0 59bb 9462 c7bc aa0b 2c3b 0135 4f3c
00000050: e752 10bc b7d8 86bd 0add 29bd 661b 90bd
00000060: d52b 9a3c 55ff 47bd 563b 51bd 5957 a9bd
00000070: d780 eebc bd52 30bd a8a4 8ebd 803f b83c
00000080: f272 0e3c 42a2 0d3d 1b13 98bc 7a58 96bd
00000090: 6d37 c13c a7d9 6c3d abd8 4c3a f7f2 bcbc
000000a0: 6377 54bc bc45 4fbb 3fd2 fd3c 1157 d93c
000000b0: 70a0 febc 40a5 cdbc c32f a1bc dc3d debc
000000c0: 6a89 00bd 1e59 c73c dc94 2bba 9247 68bd
000000d0: 757d ea3c 79e3 0dbd e5f1 9d3c 6645 8bbd
000000e0: 2ede af3b 8e44 bdbc 8735 28bd 1e44 90bd
000000f0: ee4f 343d 2e02 acbb 55e9 013c 5256 46bd
00000100: 4850 473d 6396 273b ab58 223d 5dab eb3c
00000110: 03fe 06bd cfec f93c 5a3e 5dbd b2f3 e8bc
00000120: 677f 663d 2844 41bd b314 a2bc 6ad7 873a
00000130: d677 96bb f901 bcbc 198c 54bd 591b 463d
00000140: b07e 73bd 790c 4a3d 1c48 1f3d 0c79 483c
00000150: 4ca7 dcbc 2e82 663c 686c 6dbd 879d 88bd
00000160: 8605 4cbd 93cb 233d eb37 92bd 052d 5a3d
00000170: 8021 63bc 1c1f fcbc ee53 193a 2056 e7bc
00000180: cdb9 f73b 1eb4 82bd 3469 683d e975 4abd
00000190: c5fb 82bc 1a65 bdbc e0e0 443d f662 06bd
000001a0: 0445 303d adf7 bfbb a7ba 0abd 9d7c c53c
000001b0: 422b 4f3b 38a6 363b bba4 4abd 5be3 e4bc
000001c0: 6153 f83c 6762 c7bb eeba f73c 4733 833d
000001d0: d57c 193d 78f5 573b 13a1 683d 1b6f 0c3d
000001e0: d2f1 5a3d de4f 073e f438 923a 5de9 18bd
000001f0: 5a41 a53d f2f9 b7bc 0d22 bfbc 9604 523d
00000200: 0f32 8e3c e859 99ba 99e0 843d 2544 cbbc
00000210: 5ee9 7dbd d5f7 0cbd efde 123d d04d fb3b
00000220: a249 93bd 8457 153b 4ad0 8c3d e6a6 233c
00000230: 5ed6 24bd b4e1 953a 4ba7 74bc e91a 54bd
00000240: 41e7 023d 34f7 c1bc 8029 d33b c553 343d
00000250: f434 903d f90f f6ba fda5 91bd 20a3 4f3d
00000260: 41a0 ebbc 440d 293d 4740 94bd 4d64 4c3d
00000270: e633 fb3c 83eb f5bb 03a1 d8bb fa1d c83c
00000280: fd26 1d3c 335c 8bbd 5917 07bd b7d2 88bd
00000290: 30cf 2f3d 66a3 c13c 4fca 1e3c c263 4d3d
000002a0: 2897 553d a3c8 5a3d c288 a63c 627b 4c3d
000002b0: 0f5e 37bd c4cc 06bd 7197 5dbd fb17 553d
000002c0: 6032 d43c 731a 4c3d 7893 8bbd e89e 653d
000002d0: ffad aa3b bcc0 bbbc 1b36 f1b9 1de8 9c3c
000002e0: 6861 2e3c 1e83 94bc 18a6 61bd c0e1 d23c
000002f0: 7dce a13c 8c58 de3c b4b8 583d e4c9 373c
00000300: 4e51 f13b 2dd5 99bc d948 013b 0394 e23c
00000310: da86 47bd 77a3 80bc 29b3 32bd fd67 4bbd
00000320: 2fe2 153d 5a86 8e3c 6c76 59bd d446 9bbc
00000330: 318b 78ba e644 e13d 603e 103d cb7e 013d
00000340: d280 f23c f5f1 88bd a2ce d4bc b4de 6d3c
00000350: e0e7 7bbd e8a1 04bd 7e18 53bc 303c 0e3d
00000360: bade 55bd 419f 2dbd 9284 923d c872 42bd
00000370: 52fd d2bc bd83 9d3c ec3e 973a 997d f9bc
00000380: 6cdf 33bc d1f9 5d3c 9817 1cba ff12 dcbc
00000390: dd95 14bd bafa 63bd 2136 2bbc 59b9 38bd
000003a0: 022c 76bd aa32 10bd 4947 a4bb 5045 073c
000003b0: 884b 203b 05f1 8cbc 3a69 22bd 2b30 6bbd
000003c0: f628 cc3c 6d6c 1c3d 4844 2dbb 9cd7 84bc
000003d0: 48e2 953d 3f41 a0bd e756 a63c 0329 253d
000003e0: b423 83bd feaa a33d 1a2a 3fbc 086f bd3c
000003f0: 7bba c23c 3a39 e23b 325e a4bc 4e86 f73c
-0.047253132 0.053187273 0.008222178 0.039326005 0.016260767 -0.009783978 -0.030883908 0.042364977
0.016519677 -0.020984225 -0.020952849 -0.0098926 -0.047176126 -0.01847891 -0.011694924 -0.025770698
-0.0033254963 -0.024338998 0.002625207 0.012646914 -0.008808828 -0.06584304 -0.041470565 -0.07036476
0.018819729 -0.048827488 -0.051081978 -0.08268613 -0.02911417 -0.043047655 -0.069649994 0.022491217
0.008694397 0.03457857 -0.018563798 -0.07341094 0.023586 0.057824757 0.00078142685 -0.023065073
-0.012967917 -0.0031627258 0.030984042 0.026530774 -0.031082362 -0.025103211 -0.019676095 -0.027129106
-0.03138105 0.024334487 -0.0006545314 -0.05670888 0.028624276 -0.034640763 0.019280383 -0.06800346
0.005367062 -0.023103978 -0.041066673 -0.07044242 0.04402154 -0.0052492833 0.007929166 -0.048422165
0.048660547 0.0025571815 0.03963534 0.028768236 -0.03295709 0.030508427 -0.05401454 -0.028436515
0.056273844 -0.04718414 -0.01978526 0.0010363881 -0.0045919223 -0.02295016 -0.05189142 0.048365925
-0.05944699 0.0493283 0.03888713 0.012235891 -0.026935242 0.014069123 -0.057964712 -0.06670671
-0.049809955 0.039989065 -0.07139572 0.05326559 -0.0138629675 -0.030776553 0.00058489933 -0.02823931
0.007559991 -0.06382011 0.056740955 -0.049428854 -0.015989194 -0.023119498 0.04806602 -0.03280922
0.04303457 -0.0058583827 -0.03386941 0.024107272 0.0031611477 0.002787007 -0.049473505 -0.027940443
0.030313196 -0.0060847285 0.030240502 0.06406265 0.037472565 0.0032952707 0.056794237 0.034285646
0.053453274 0.1321406 0.0011155889 -0.037331928 0.080691054 -0.02245805 -0.023331666 0.051273905
0.017357854 -0.0011699768 0.06488151 -0.024812767 -0.061990134 -0.03441604 0.035857137 0.007669188
-0.07191779 0.002278776 0.068756655 0.009988522 -0.0402435 0.0011435063 -0.014932464 -0.051783476
0.031958822 -0.023677446 0.006444156 0.0440252 0.0704135 -0.0018773071 -0.07111738 0.050692677
-0.028762938 0.041272417 -0.072388224 0.04990034 0.030664396 -0.007504882 -0.006610991 0.024428356
0.009591815 -0.06804695 -0.03298125 -0.06680816 0.0429222 0.023637485 0.009691789 0.050143965
0.052146107 0.053414 0.020328883 0.049922355 -0.044767436 -0.032910123 -0.054099504 0.052024823
0.025902927 0.04982991 -0.06815237 0.056059748 0.00520873 -0.022919051 -0.00046007414 0.019153649
0.010643341 -0.018128928 -0.05509004 0.025742412 0.019751782 0.027141832 0.05291052 0.011217568
0.0073644286 -0.018778408 0.0019727258 0.027658468 -0.04871259 -0.015702946 -0.04362789 -0.049659718
0.03659266 0.017398048 -0.05309145 -0.018954672 -0.00094811904 0.109994695 0.035215735 0.03161506
0.029602442 -0.06686775 -0.025977436 0.014518429 -0.06150043 -0.03238097 -0.012884257 0.034725368
-0.05221436 -0.042388204 0.07154192 -0.047472745 -0.025755558 0.019227857 0.0011539138 -0.030455397
-0.010978561 0.01354833 -0.00059544435 -0.026864527 -0.036275733 -0.055659033 -0.010449917 -0.045098636
-0.060100563 -0.035204567 -0.0050133807 0.0082562715 0.0024459083 -0.01720477 -0.039651133 -0.057418983
0.024921875 0.03818934 -0.0026438404 -0.016216092 0.0731855 -0.07824945 0.02030511 0.040322315
-0.06403294 0.079915985 -0.011667753 0.023124233 0.023770561 0.0069037946 -0.020064447 0.030215409

decoder_3.0.bias f4 [24]
00000000: e768 dbbc a0a4 7c3c 4e79 9bbd 5436 143d
00000010: a173 193d fd19 bb3c e0a1 1ebd 2b81 f5bc
00000020: 50db 803b cc1a 11bc b4fb 923d 2744 94bd
00000030: 3de2 1b3d 3cc3 87bd 3cc3 5fbd fcc4 153d
00000040: 67e4 9abd 4fc1 24bd e563 093d 6576 2e3a
00000050: 3e87 333b b99f 023e 963e 383c 76d6 923c
-0.02678342 0.015420109 -0.075914964 0.036184624 0.037463788 0.02283954 -0.038728595 -0.029968819
0.003932394 -0.0088564865 0.07176915 -0.072395615 0.038057555 -0.06629035 -0.05462955 0.036564812
-0.075630955 -0.040223416 0.033542532 0.00066552154 0.0027393843 0.12756242 0.01124539 0.017924529

decoder_2.0.weight f4 [24, 36, 3, 3]
00000000: 1128 073d 5e23 44bd a610 38bc c2f9 1ebd
00000010: 5d19 4e3d ccee 373d 712a a2bc 4a83 b0bc
00000020: ea5f 2ebd 59ff 15bd 7ffc 4dbb 2159 95bc
00000030: 0827 2abd 8089 1abd 1931 05bd cb60 c03c
00000040: 45a3 1f3c f3fc 133d 43e5 3abd 43e5 35bd
00000050: e724 3cbd adf7 203a 35a8 30bd 19ec cabc
00000060: 8ce9 57bd d9cb 323d 4d6b 323d 39d4 84bd
00000070: 0525 603c a3d2 42bc f55f b3bb 66cb 7bbd
00000080: 103c b33c 739b fbbc 500a 2c3c 926e a33b
00000090: 6133 5c3d d478 7abc 0230 893c 0b3a cf3c
000000a0: ec28 4e3d 6d3b e43b 5bdf c03b 8c1b 433d
000000b0: 5f0a 4dbd 140a 4ebd bcb1 b43c 003e 66bd
000000c0: acf9 76bd c36e 00bd 1bd6 0d3d 0fac 3dbd
000000d0: 8f45 aeba c59f 3abc 0c19 52bd d67c 86bc
000000e0: 41cb 243d c495 b2bc 7cec 44bd ee83 41bd
000000f0: a5ef 4dbd fdac 37bd 872a ee3c 6958 323d
00000100: c768 243d 6097 183c 3f79 32bc a73f e8bc
00000110: 62b2 883c d96e 503d 79dc 2abc 5305 033d
00000120: ab13 1e3d 206f dd3c 1f02 44bd 8953 1cbd
00000130: 5ccf 5fbc 606a 5fbd ada8 51bd 5462 4c3d
00000140: 23ad c8bc 80ac 9e3b fee1 52bd 0765 1ebd
00000150: 6ff3 c4bc 2b01 043d 46d8 08bc 93f5 6dbd
00000160: 59ca fbbc 5d45 583c aeb2 24bd eafa 32bc
00000170: 0eea 043d 6526 273d 8c1a d6bc eeba 163d
00000180: 2db7 1f3d 6ecd dabc cbc4 4b3d 9526 40bd
00000190: 3470 bebc 44b6 fcbc f2a1 363d 0e90 57bd
000001a0: 3174 063d 4903 28bd bb62 85bb 8ac6 9bbc
000001b0: f2c7 313d 7054 553c aea1 30bd c7a2 50bc
000001c0: a255 26bd 2099 103c ef28 3d3d 3d12 4c3d
000001d0: 8cd6 a5bc 482c 8fbb fada d73c 648e 81bc
000001e0: 4220 3fbd fc9b 763c 63d0 4d3d fbf1 3f3d
000001f0: 3d4e f2bc d309 5c3d a153 e8bb 46bd 483d
00000200: f826 013d f39f a13b 7a89 0b3c f453 57bd
00000210: 5dd7 b43c 6f56 e8bc c7ff 15bd 4e03 933c
00000220: f7a5 3cbd 2536 db3b f06a 65bd 2ec7 05bd
00000230: 1732 1d3c 56f4 513c aac6 273b fb7c 4dbc
00000240: 8c7d e13c 8f51 d6bb b763 febc e5e8 67bd
00000250: e3ea 1dbc 08d9 cdbc 1d19 013d 8b82 4f3d
00000260: 5aee 4ebd f673 1cbd bbdd c63b 8b48 2f3d
00000270: ae7a 3e3d af7b 6a3c 8e0f 53bc 6c99 b23c
00000280: 6e0f 1c3d cd27 833c e334 bbbb 8d86 9bbc
00000290: 1ea2 803c 1eb0 0bbd a87d dc3b 276c 203d
000002a0: 0070 6bbc c899 813b 9f48 5b3d 38e0 73bc
000002b0: a2ea a53c 895d 5a3d 92b9 bebc 48a2 cabb
000002c0: 7086 73bb 0431 be3b 966a 56bd eb1a 3ebd
000002d0: 104c 13bd f88b b3bb 0c82 ffbc 7614 82ba
000002e0: 2237 f6bc 3d4c 3fbc 5cb6 13bd ce9d a4bc
000002f0: cc9e e03c ca25 e3bc 367c 0abd 4fd9 11bd
00000300: c15b 17bd 3e2d c13c 04ea 8cbc f211 1dbd
00000310: 3717 00bd 476a 22bd 5fa0 073c 44a5 56bd
00000320: 3b9a b13c fe6e 1abd 793c 033d a341 64bc
00000330: e8dc bcba d329 763b 17ed 57bd 2310 6ebd
00000340: aa7f 3d3c 2113 07bd 8474 bb3b 00f1 0a3d
00000350: b230 6e3b 3743 3e3d a334 423d 5081 ddbc
00000360: 7639 58bd 9741 5dbb 2268 803c 479f 7bbd
00000370: c978 193c e544 253d 1b66 26bc a9c3 4abd
00000380: a376 0ebd c4c1 20bd fc64 573b ccd5 ea3c
00000390: 52b0 203d 301d 1cbc 6696 df3c 0bab 2cbc
000003a0: a2dc 4e3b 221d 78bc da5f 39bd 016b 423c
000003b0: fb1b 37bd 2064 c5bc a147 94bd 8caf e1bc
000003c0: a99f 1dbd fa0d 5abb e1c1 b5bc 32d6 fa3c
000003d0: a71e ad3c 58f7 68bd 2009 24bd 99c1 1fbd
000003e0: 8837 1fbd 5274 d43c 1843 50bc 7b78 d53b
000003f0: 1ad1 bdbc 82ab 7bbd 7ea0 8fbc e40b ba3b
0.032997195 -0.04788529 -0.011234438 -0.038812406 0.050317157 0.04490547 -0.019795628 -0.021546979
-0.04257194 -0.03662047 -0.0031431017 -0.018230977 -0.04154113 -0.037728786 -0.032517526 0.023483654
0.009743516 0.036129903 -0.045628797 -0.044408094 -0.04593363 0.0006140422 -0.043129165 -0.024770783
-0.052712962 0.043651436 0.04355936 -0.06485791 0.013680701 -0.01189104 -0.0054740855 -0.061473273
0.021879226 -0.030713772 0.010500506 0.0049875462 0.053759936 -0.015287597 0.016746525 0.025296232
0.050331995 0.006965092 0.005886001 0.047633693 -0.05005872 -0.05030258 0.022057407 -0.05621147
-0.0602967 -0.03135563 0.034628015 -0.046306666 -0.0013295877 -0.011390631 -0.051293418 -0.016416948
0.0402329 -0.02179993 -0.04807709 -0.04724496 -0.05027737 -0.04484271 0.029073013 0.043541346
0.040138986 0.009313434 -0.010893165 -0.028350664 0.016686622 0.050886963 -0.010428541 0.0319875
0.038592976 0.027030528 -0.047853585 -0.038165603 -0.013660278 -0.054544806 -0.051186252 0.04989846
-0.02449662 0.004842341 -0.051485054 -0.038670566 -0.02404186 0.032227676 -0.008352345 -0.058095526
-0.030736135 0.013200131 -0.040209465 -0.01092408 0.032449774 0.0408081 -0.026135705 0.036799364
0.03899305 -0.026709285 0.049748223 -0.046911795 -0.023246862 -0.03084863 0.044588037 -0.052627616
0.032825653 -0.041018758 -0.0040706075 -0.01901557 0.043403573 0.01302062 -0.04312294 -0.012734122
-0.04060901 0.00882557 0.046181615 0.04982208 -0.020243905 -0.0043692924 0.026349533 -0.015814967
-0.046661623 0.015051838 0.05024756 0.04686163 -0.029578323 0.053720307 -0.0070900475 0.04900863
0.031531304 0.0049323975 0.008516664 -0.0525703 0.02207535 -0.028361527 -0.03662088 0.017945912
-0.046056714 0.006689804 -0.056010187 -0.032660656 0.009594462 0.012814602 0.002560059 -0.012542005
0.027525686 -0.0065404843 -0.031053407 -0.05661859 -0.009638521 -0.025127903 0.03151809 0.050661605
-0.05052028 -0.038196526 0.006068913 0.04279379 0.046503715 0.014311715 -0.0128821265 0.021801673
0.038100652 0.01601019 -0.0057130917 -0.018985057 0.015702303 -0.034103505 0.0067288466 0.039165642
-0.014369965 0.0039550997 0.053536054 -0.014885001 0.020253483 0.05331186 -0.023281846 -0.006183896
-0.0037158988 0.005804183 -0.052347742 -0.04641239 -0.03596121 -0.005479332 -0.03118994 -0.0009924311
-0.030055586 -0.0116758915 -0.036062583 -0.020094778 0.02741947 -0.02772798 -0.033809863 -0.035607632
-0.036952738 0.023581143 -0.017201431 -0.038347192 -0.03127214 -0.039652135 0.008277982 -0.052403703
0.021679988 -0.037703507 0.032040093 -0.013931665 -0.0014409097 0.003756155 -0.05271634 -0.058120858
0.011566082 -0.032977227 0.005720677 0.03392124 0.0036344943 0.04645082 0.04741348 -0.0270392
-0.052789174 -0.0033761018 0.015674654 -0.061431196 0.009367176 0.040348906 -0.01015618 -0.049503002
-0.03478111 -0.03924729 0.0032866588 0.0286664 0.039230652 -0.009528443 0.027293395 -0.010538827
0.0031564613 -0.015143665 -0.045257427 0.011866332 -0.04470442 -0.024095595 -0.07240225 -0.027549528
-0.038482342 -0.003327249 -0.022187175 0.030619714 0.02113278 -0.05687651 -0.040047765 -0.03900299
-0.038871318 0.025934372 -0.012711309 0.0065146065 -0.023170996 -0.06144286 -0.017532583 0.005677687

decoder_2.0.bias f4 [24]
00000000: fa8b 24bd bf8b 333d ac33 58bd 37ae 393d
00000010: c553 a93c 6ed5 513c afa3 4a3d 2c0d 3abd
00000020: 1832 653d b372 803c 6c15 a5bc 087a fcbc
00000030: 80bf 50bc c410 183d c384 4bbd 29ec 993c
00000040: 72c7 6a3a 6d7c a8bc 69e1 13bd f52d edbc
00000050: 271c 93bc 961b 3dbd 830a 81bd 01c4 16bc
-0.040172555 0.043834444 -0.052783653 0.04533216 0.020669827 0.012807233 0.049472507 -0.045422718
0.055955976 0.015679693 -0.020151816 -0.030819908 -0.01274097 0.037125364 -0.04968716 0.018789368
0.0008956111 -0.020567143 -0.03610364 -0.028952578 -0.01795776 -0.046168886 -0.06300833 -0.009202004

decoder_1.0.weight f4 [24, 27, 3, 3]
00000000: 68f7 773d 2693 93bc bdad 853d a9e4 773d
00000010: b083 86bb 47f7 4abd 60e4 5c3d a2d8 803d
00000020: 230c 093d 715c 73bd ec51 a0bc 55a2 71bc
00000030: 1033 9f3b 3e59 a63c c96e 4abb e595 a6bc
00000040: 56c4 79bc 0e3d 35bd 3c6d 20bc ec01 3b3d
00000050: 454a 9f3a 5ace 393d 3776 353b c2a5 c3bc
00000060: 544b 573d 42bf 04bc 0dec 2b3d 5d06 c5bd
00000070: afbc 7b3c 0c4d 30bd cfda 6ebc a4f3 05bd
00000080: ef80 8dbb 70e6 c2bc 70b0 d3bc ff20 363b
00000090: 9926 99bc 71bb 32bd cbcb 3ebd b411 053d
000000a0: ff9d 60bb d9c0 5b3d 2fd2 46bd ef58 91bd
000000b0: f479 903b 2be3 46bd 754f a63c ef45 263c
000000c0: 208d eb3c c386 8b3d d85b bc3d 112a 283d
000000d0: b498 403d b6ec bc3c 5898 223c 0cc3 7ebd
000000e0: 9eef 89bc 295d 2a3d 465e 833a ca40 de3c
000000f0: 944f 70bd 4797 c53b 2a32 6a3d 3833 56bd
00000100: a0e0 523d 34aa 763d 42d4 94bb 6d57 0c3c
00000110: fbac c1bc 07f2 89bd ab5c 8b3c 9223 f6bc
00000120: ef8a 1c3d 41cc f9ba c565 803d 9a3f e83d
00000130: 03d3 4abd 0ec9 523c c2ad 053c bfba 70bd
00000140: b39d be3c 8d4c 0cbc 64c4 56bd 2d97 48bd
00000150: c3be dcbc 6756 883a 046a 06bd 8815 d8bc
00000160: 6755 b63c d9ba 6f3d 0492 5cbd fa8b 913c
00000170: c81e 69bd 2ded d73c 971b b2bc 75b1 17bc
00000180: 6a42 03bd 0692 6c3c 8a2c 603d 1812 8fbb
00000190: 9e2b efbc badf fbbc 860d 07be 22c0 d2bc
000001a0: c829 b5bd 2793 31be 1f5a 9e39 bfad 2abe
000001b0: 4b03 04bd b031 2dbd 670d 343d 7fbd 29bd
000001c0: d3a0 913d 209a c43c 66fe 393d 73bc 85bb
000001d0: a097 083d 3cf1 923c a76d 603d 7f27 203d
000001e0: 005e a7bb 794d 963d 97d0 653d 9f38 133d
000001f0: 7f4b c13c 653a 123b 3375 0d3d 5027 33bc
00000200: 010d 463d 45e1 4b3c f568 613b 86ad 8cbc
00000210: 16cf a6bc 667d 253d bc0d ca3b f2c6 80bd
00000220: 6139 513d 863e 6dbc 9ffd 8cbc 6cf7 81bc
00000230: 9c00 823d 5a99 773d ed62 c93c 6326 e1bb
00000240: 03ac 483b 7e13 8ebc fa39 4a3c 6014 653c
00000250: d95e f43c 77f3 d6bc 5e9d b1bc 675a 713d
00000260: e569 22bc 1438 b9bc 50fe 9bbc 66e7 2dbd
00000270: ee78 6d3c 01f4 96bc 7103 503d 5b9d 213d
00000280: 594c 2fbb 5d34 c8bc cacf 183c 9660 443d
00000290: 06dd 58bc b3d8 db3c bd2f 5d3d 0401 563d
000002a0: 62b0 62bd b745 1cbd 6780 e0bc f16d 29bd
000002b0: b4b0 963c 7643 64bd 3f24 8f3d 7838 763d
000002c0: 23a4 883d 9dff 8f3d 9419 d83b d002 6f3d
000002d0: 101f 2dbd 6c09 cdbc 87b5 4c3b 06db cbbc
000002e0: c357 2fbc e885 f63c ce94 933d 5417 10bd
000002f0: 31a6 493d 2e01 68bb bcc3 7bbc 2410 233c
00000300: 9278 80bd e41c 3c3d a814 fe3b 39b4 58bd
00000310: 20a2 72bd 6bdc 473d 0a83 2cbc db23 fe3c
00000320: 230d cc3d 1e53 263b 6b33 dcb9 5c21 b33c
00000330: a79b 0ebd 9bb3 dfbc 9f01 c03c 2685 c9bc
00000340: 5af4 16bc e8c6 3bbb 2c48 b0bd 454b e7bc
00000350: 12b4 d53c 787b b53c 99e2 873d 1b31 95bb
00000360: 7501 34bd 0ed4 17bd 5456 69bb b910 4d3d
00000370: ce00 9d3d 8acc 3b3c 2b3d 08bd 2116 d53c
00000380: 0461 4c3d 7b2a 7e3d c525 5d3c 3f19 733d
00000390: 2ba9 413d f11f 0e3d 3457 953b fa0e 533d
000003a0: f0f6 7e3c 0c9c f93c cf50 3abd 0919 e23c
000003b0: 4258 bd3c 3075 96bc 7efb 733d 1459 a63d
000003c0: d91c 073d 65df 6a3d c9c0 5f3c 7ef0 3fbd
000003d0: 720b 023c 859b 04bd ba52 c73c 11bd 2dbc
000003e0: 4be7 c13c 33fe c2bc 93b0 5cbd 47bc 4fbb
000003f0: 2b42 1d3b dda9 b93b ee2c 963d 0fd5 f7bd
0.06053868 -0.018014502 0.065272786 0.0605208 -0.004105054 -0.04955223 0.053928733 0.062913194
0.03345884 -0.05941433 -0.019570313 -0.014748176 0.004858382 0.020306226 -0.0030888787 -0.020335147
-0.015244564 -0.04424768 -0.0097916685 0.04565613 0.0012152871 0.045362808 0.002768887 -0.02388275
0.052562073 -0.00810224 0.041973162 -0.09620354 0.01536481 -0.043042228 -0.014578535 -0.032703057
-0.0043183486 -0.023791522 -0.025840968 0.0027790663 -0.018695163 -0.04363579 -0.04658107 0.032487586
-0.003427386 0.05365071 -0.04854029 -0.07097041 0.004409069 -0.048556488 0.02030156 0.010148509
0.028753817 0.06812813 0.09197205 0.041055743 0.04702063 0.023062091 0.009924017 -0.06219773
-0.016837891 0.04159275 0.0010022603 0.027130503 -0.05866964 0.0060299966 0.057176746 -0.05229494
0.05148375 0.060220912 -0.0045419047 0.008565766 -0.023642054 -0.06735616 0.017011961 -0.030046258
0.038218435 -0.0019058065 0.06269411 0.11340256 -0.049517643 0.012865318 0.008159103 -0.058771845
0.023268556 -0.008563173 -0.052433386 -0.048972297 -0.026946431 0.0010401726 -0.032815948 -0.026377454
0.02225752 0.0585278 -0.05385019 0.017766941 -0.05691412 0.026358211 -0.021741671 -0.009258618
-0.03204576 0.014439112 0.054729976 -0.0043661706 -0.029195603 -0.03074633 -0.13188753 -0.025726382
-0.0884586 -0.1734129 0.00030203254 -0.16667841 -0.032229703 -0.042283714 0.043958094 -0.041440483
0.07110753 0.023999274 0.04540863 -0.004081303 0.033347726 0.017937295 0.054792073 0.039100166
-0.005107641 0.073389955 0.05610713 0.03594267 0.02359557 0.0022312638 0.034535598 -0.010934666
0.048352245 0.012443845 0.0034394835 -0.017172586 -0.020362418 0.040402792 0.006166188 -0.06287946
0.05108011 -0.014480239 -0.01721078 -0.01586505 0.063477725 0.06044898 0.024583304 -0.006871031
0.0030620105 -0.017343279 0.012342924 0.013981909 0.029830383 -0.02623914 -0.021681484 0.058924105
-0.009912943 -0.022609748 -0.019042164 -0.042457007 0.014494164 -0.018426897 0.050784532 0.039456706
-0.0026748388 -0.024439031 0.0093268845 0.047943674 -0.01323629 0.026836729 0.054000605 0.052247062
-0.055343993 -0.038152423 -0.027404977 -0.041364614 0.018394805 -0.0557284 0.06989335 0.060112447
0.066719316 0.07031176 0.006594846 0.05835229 -0.04226595 -0.025028907 0.0031236128 -0.024884712
-0.010702076 0.030093148 0.072061166 -0.035178497 0.049230758 -0.0035401094 -0.015366491 0.009952579
-0.06272997 0.04592599 0.0077539273 -0.05290625 -0.059236646 0.04879419 -0.010529289 0.031022957
0.09963443 0.0025379132 -0.0004199998 0.021866493 -0.03481641 -0.027307322 0.023438273 -0.024599623
-0.009213531 -0.0028652493 -0.08607516 -0.028234133 0.02608684 0.022153601 0.06635017 -0.004552973
-0.043946702 -0.037067465 -0.0035604434 0.050064776 0.07666169 0.01146234 -0.03326146 0.026011528
0.04989721 0.06205223 0.0134977745 0.05935025 0.04728047 0.03469843 0.0045575146 0.051527955
0.015561804 0.030469917 -0.04548722 0.027599828 0.023113374 -0.018366426 0.059566014 0.08122459
0.032986496 0.057341952 0.013656803 -0.04686021 0.007937299 -0.032374877 0.02433144 -0.010604159
0.02366986 -0.023802852 -0.05387933 -0.0031697915 0.0023995738 0.0056660012 0.073327884 -0.121011846

decoder_1.0.bias f4 [24]
00000000: bc0a 7b3d 58e7 9f3c d073 34bd 5ed8 583b
00000010: 4c58 d5bb c037 c1bb bb2d e2bc fe59 1f3d
00000020: 01a2 e83a 61af 8ebb d71b 54bc 8721 393d
00000030: 7dc5 073d 892c 4f3d 9b81 e5bb 5329 5b3d
00000040: f5d4 c5bc a2b3 9bbc a35b 353d 392c 863d
00000050: 0bda f8bc 4800 44bb d719 1e3d d93e 263c
0.061289534 0.019519493 -0.04405576 0.003308795 -0.00651077 -0.0058965385 -0.027609697 0.038904183
0.0017748476 -0.004354403 -0.012946091 0.04519799 0.033147324 0.05057958 -0.0070039756 0.053506207
-0.024149397 -0.019006554 0.044276845 0.065514036 -0.030377408 -0.0029907394 0.03859886 0.01014682
