Miniproject_1/bestmodel.pth (torch, 100085 bytes, 16 tensors)

encoder_1.0.weight f4 [12, 3, 3, 3]
000000 c9 76 4b 3c 77 8d dd bc a7 b5 03 bc 6d 8a 1c be
       0.012418457 -0.027044995 -0.008038915 -0.1528718
000010 aa bf 4d bd 19 59 67 3d 82 57 ca bd 4d 0f 3e bd
       -0.050231613 0.056481455 -0.09879972 -0.04640131
000020 bd 0f 82 3e 2a 30 0b bd 0d 6b 00 be 77 bf d5 3c
       0.25402632 -0.03398148 -0.12540837 0.026092274
000030 c3 80 0b be 33 d0 ca bb 7b 65 35 3e 00 6f f5 bc
       -0.13623337 -0.00618937 0.17714493 -0.029960155
000040 0d 2a 0f 3e 50 1f c8 3a 76 a6 0c be 5c b6 53 bc
       0.13980885 0.0015268121 -0.13735375 -0.012921896
000050 92 9e 4e 3d fc 3a 74 be 22 17 e2 bc 0d 64 11 3e
       0.050444193 -0.23850626 -0.027598921 0.14198323
000060 ef 15 ea bd 0d ad 2e 3e 19 d2 12 3e ff fe b7 bd
       -0.11429965 0.17058201 0.14337958 -0.089841835
000070 88 96 84 be 93 f7 8b 3e 34 d3 26 3c 37 48 74 3d
       -0.25896096 0.27337322 0.010182191 0.059639182
000080 5a 78 7d ba 45 44 3f 3d ad 47 d8 bd 63 3d 15 3d
       -0.0009669118 0.046695966 -0.10560546 0.036435496
000090 6d 09 fd 3d b6 38 a0 be ad 53 8f 3e d6 c0 1a 3c
       0.123553135 -0.31293267 0.27993527 0.00944539
0000a0 57 20 e5 bc b7 76 af bd 4e 0e aa bd e6 c7 02 3e
       -0.027969522 -0.08567565 -0.0830351 0.12771568
0000b0 61 00 e8 bc 3d 4c 69 3d 10 0d 74 be 52 77 55 3e
       -0.028320493 0.056957472 -0.23833108 0.20846298
0000c0 1b eb 5a bd f2 02 81 3d 09 da d5 bc b1 aa 97 bb
       -0.05344687 0.0629939 -0.026104944 -0.0046285023
0000d0 40 c7 51 3c a1 a0 f0 bc 67 c9 99 bd 32 0f a0 3d
       0.012803853 -0.029373469 -0.075091176 0.07815398
0000e0 29 54 60 3d 25 44 e5 bc 40 40 14 be 07 78 d4 3d
       0.05476776 -0.027986595 -0.14477634 0.10374456
0000f0 9b 9d 01 bd b0 7f 1e bd 0e e1 d3 bc 17 0d 58 3b
       -0.031644445 -0.03869599 -0.02586415 0.0032966787
000100 62 ff 42 3e 0e ba 45 3e 99 c9 10 be 65 85 fd bd
       0.19042733 0.19309255 -0.14139403 -0.123789586
000110 da ea 13 bd 21 69 74 3d 7c 97 91 bd 2a b5 53 3d
       -0.036112644 0.05967057 -0.071089715 0.051686443
000120 b9 50 ec bc 6f 62 4a 3e f2 ba 8a 3d 2f c6 27 be
       -0.028847085 0.19764112 0.06773938 -0.16384195
000130 d4 2f b0 bc 6c cc e5 3c 8c 82 b9 bd 90 2f 75 3c
       -0.021507181 0.028051578 -0.09058103 0.014964953
000140 5a e8 98 3c 73 49 41 3d 14 17 b7 3d 9d 7a 27 3d
       0.018665481 0.047189187 0.08939949 0.040888418
000150 57 9b 56 3d 14 2e 04 3e 45 9f 04 3e f9 f2 e9 ba
       0.052394237 0.12908202 0.12951382 -0.0017848901
000160 cc 9b 03 bd 3e cb b0 bd 93 1f f7 bd 11 f5 b8 3c
       -0.032131 -0.08632515 -0.12066569 0.022577794
000170 82 da 68 3d 38 ee ec bd 59 f0 32 bd c1 5a 63 3d
       0.05684901 -0.11568874 -0.043686245 0.05550647
000180 b6 ba 40 bd e2 d4 9d bc ea e0 a8 3d 90 d7 83 3d
       -0.04705306 -0.01926655 0.08246024 0.064376
000190 ff 97 aa 3d e0 44 66 bc 6b 09 cf 3d 58 d4 88 3d
       0.08329772 -0.014054507 0.10109218 0.06681126
0001a0 84 d7 87 3d a7 49 fe 3c 46 31 19 bb df a4 08 be
       0.06632903 0.03104098 -0.0023375317 -0.13344143
0001b0 f7 01 e3 bd be 60 4a 3e ee 57 d8 bd a7 db 18 bd
       -0.11084359 0.19763467 -0.10563646 -0.03731885
0001c0 80 03 0d 3e 7c 35 1d be cb a2 e2 3c ee 59 91 3d
       0.13770866 -0.15352434 0.027665516 0.07097231
0001d0 30 a1 c9 bd 30 db ad 3d 27 67 46 3e c8 1f 38 be
       -0.09845197 0.08489072 0.19375287 -0.17980874
0001e0 1e c8 a8 bb 26 01 06 3e 68 c5 48 be 8d 2c 39 bd
       -0.005150809 0.13086376 -0.19606555 -0.045208503
0001f0 61 a2 09 3d 01 e3 68 bd 71 08 d2 bd 62 f8 33 3e
       0.033602122 -0.056857113 -0.10255516 0.1757522
000200 9e 6b e5 bc 1c c8 8b 3d 30 5b 84 3d 82 64 f2 bd
       -0.028005417 0.06825277 0.06462705 -0.118355766
000210 10 72 ca bb b3 94 26 3d 77 b4 26 3d 97 c9 9e bc
       -0.006178148 0.040669154 0.04069945 -0.019383235
000220 91 a3 fe bc a0 28 0b 3e 88 df 5c 3c bc f3 37 be
       -0.031083854 0.13589716 0.013481028 -0.17964071
000230 1f 3c 42 3d 5e c4 38 3d 6c 7b 9d bc f7 a6 ff bc
       0.047420617 0.045109145 -0.019223891 -0.031207545
000240 29 b3 7c 3a 57 e4 f6 bd 64 a8 09 3e b9 6c 44 3d
       0.0009639734 -0.12055271 0.13443142 0.04795525
000250 46 1d 7d be 58 7c 42 3e 49 4b 49 bd 2a 21 1d be
       -0.24718198 0.18992746 -0.049144063 -0.15344682
000260 5d 2d a8 3d 2f b1 87 bc 48 24 13 3d 6c 62 1b 3d
       0.08211777 -0.01656398 0.035923272 0.03793566
000270 fb 37 20 bd ce e3 52 be 0e 21 ff 3d 36 78 a1 3d
       -0.039115887 -0.20594713 0.124574766 0.078842565
000280 ae e2 ae bd 5f 86 21 3d 30 2b 8e bc fe e4 31 bc
       -0.085393295 0.039434787 -0.017354578 -0.010857819
000290 1b ab 39 3b 5a 2f 2d be 2b bd 96 bd 5a 7d 00 be
       0.0028330747 -0.16912594 -0.073603 -0.12547818
0002a0 82 8c 47 3e 4d e8 74 3d 4b 5e eb 3d 88 62 93 bd
       0.19487193 0.05979185 0.11492594 -0.07196528
0002b0 dd f0 36 be a6 68 c4 bd a0 f8 1d 3e 48 c2 ce bd
       -0.1786532 -0.095902726 0.15426874 -0.1009565
0002c0 0c 23 02 bd c7 3d c8 bc 3d 7c 70 3e 48 41 62 3d
       -0.031771705 -0.02444352 0.23484893 0.05523804
0002d0 63 0b c1 bd b2 86 f7 bd 75 4c 23 be 37 c3 4d bd
       -0.09426 -0.12086238 -0.15947135 -0.050235
0002e0 71 08 05 3d dd 3b 83 bd 33 39 0a 3e 77 71 02 3e
       0.032478753 -0.064079024 0.13498382 0.12738596
0002f0 50 bf 4c 3e 2b 5b 4b 3d cc 5b 58 3e 7e 16 95 3d
       0.19994855 0.04964749 0.21128768 0.07279681
000300 fe 9f 4a bd 62 e4 00 be 7e f4 f0 bd dd 73 17 3c
       -0.049468987 -0.12587121 -0.11765383 0.009243933
000310 b2 7d 10 bd 64 d0 33 bd af fc 6f 3e e1 6e 7a 3e
       -0.035276122 -0.04389991 0.23436235 0.2445636
000320 27 5e 8d 3d 0f a3 30 3d b5 04 1e be f5 a9 4b be
       0.06902724 0.043124255 -0.15431483 -0.19889052
000330 22 f8 e9 bd 97 af 40 be 37 17 16 3c 4c 13 44 3e
       -0.11424281 -0.18816982 0.009160808 0.19147986
000340 34 77 0c 3e e2 96 82 3d 84 80 4f bd 86 44 21 be
       0.13717347 0.06376435 -0.05065967 -0.15748796
000350 fc 6f 1b be 8d 56 a5 3c 7a 1e 90 bd 00 b6 79 3c
       -0.15179437 0.020182872 -0.07037063 0.015241146
000360 82 89 5e be fd 54 55 bc 26 81 44 bd a7 13 10 3e
       -0.21732143 -0.013020751 -0.047974728 0.14069997
000370 64 e5 99 3d 3f 92 e5 3c df 61 d5 3c 1c c5 74 bd
       0.07514456 0.028023837 0.026047645 -0.05975829
000380 a8 d4 10 bc 5b 7c a2 bd c8 9c e8 bd 97 b6 08 3d
       -0.008839764 -0.07933875 -0.11358029 0.033377256
000390 c4 9b 10 3e af 2f 5a 3e 91 88 1d 3d 40 64 4d 3d
       0.1412192 0.21307252 0.038460318 0.050144434
0003a0 f5 89 86 3d 5e 6f d3 3c 2f 5c ed bd 54 cb ee bc
       0.06569282 0.02580994 -0.11589848 -0.029149689
0003b0 a5 3e d9 bb a6 49 78 3d 9a b7 8e bd a6 78 02 bc
       -0.0066297823 0.06061711 -0.06968613 -0.007963335
0003c0 6c 82 09 bc 20 b2 1b 3d 28 e3 0d bd 50 bf 76 bc
       -0.008392911 0.03801167 -0.03464046 -0.015060261
0003d0 f8 ed a6 3d 6a 83 d0 bd e7 93 c8 bc cc fc 40 3e
       0.08150858 -0.10181315 -0.024484588 0.18846434
0003e0 eb 6d 69 3d 19 fd 3e be 03 19 41 3b a7 75 b0 3c
       0.05698959 -0.18651237 0.002946437 0.021540476
0003f0 5c 39 6c 3d bf 3b 93 bd 8d 28 9d 3d ca fc d6 3c
       0.05767189 -0.0718913 0.0767375 0.026243586

encoder_1.0.bias f4 [12]
000000 86 9a 85 bc 29 03 d7 bb 9e e9 5f bc 7e 05 05 be
       -0.016309034 -0.006561656 -0.0136665385 -0.12990376
000010 ae 1a b4 bc ff 68 7b 3d 62 d2 96 bb 68 62 60 bc
       -0.021985378 0.06137943 -0.0046027163 -0.013695337
000020 7f 2f bc bc 79 84 25 bc ae ac fc b9 dc d1 b1 bb
       -0.022971867 -0.010102385 -0.00048193842 -0.0054266285

encoder_2.0.weight f4 [12, 12, 3, 3]
000000 92 38 aa ba af 84 b0 3b 06 d7 2c 3e 06 86 2e bd
       -0.001298683 0.005386911 0.168789 -0.042608283
000010 8f 1e c8 bd 98 39 7e 3e 62 50 5f bd 53 fe e1 bc
       -0.097714536 0.24826658 -0.05452002 -0.027587092
000020 6a 5b 88 3e 2e 8c c8 3c cd 26 6a bc 86 38 09 3d
       0.26632243 0.024480905 -0.014291477 0.03350117
000030 64 e9 b0 bd 66 2c 3b be bc 1a 9b 3d 02 46 02 3e
       -0.08638266 -0.18278655 0.075734586 0.12722018
000040 42 a7 91 bb 33 c5 32 3d 46 f1 b1 3d 64 ab 8e 3d
       -0.0044449875 0.043645095 0.086885974 0.06966284
000050 f1 fa 5e 3b c0 2e 19 bd b3 5e 89 3e b7 10 04 3d
       0.0034024084 -0.0373981 0.26830062 0.032242503
000060 c9 39 8a 3c 17 9b 11 3c 23 0a f9 bd cf 6a d5 bd
       0.016873257 0.008887074 -0.121601366 -0.10420763
000070 76 c0 c0 3c 12 4a 95 3b 2a 7d a0 bd 45 ab 7c 3e
       0.023529273 0.004555949 -0.07836373 0.24674709
000080 cc 31 e0 bc ac a9 93 bd 7e d8 6d 3e ff 1d 89 3d
       -0.027367495 -0.07210097 0.23227116 0.066951744
000090 ea 3e b4 bd cf 29 51 3e 73 a0 c3 bd a8 4b bd bb
       -0.088010624 0.20426105 -0.09552088 -0.005776841
0000a0 4d 95 6d 3e 18 5e 0e ba e0 5a 8c bd c3 ec 13 3e
       0.23201485 -0.0005430891 -0.068532705 0.14445786
0000b0 f1 cf cc 3d a7 54 69 bd f4 e5 b2 be 8a 19 26 3e
       0.10000599 -0.056965496 -0.34941065 0.1622068
0000c0 83 64 9d bc b2 c6 f6 bd 58 ff 7d 3d 73 cd 13 be
       -0.019212967 -0.12049617 0.062011093 -0.14433841
0000d0 ca ee 31 be 45 ab 03 be b0 ce d8 3d 2b 8d 68 3d
       -0.17376247 -0.12858303 0.105862975 0.056775253
0000e0 9d 5b 3e 3c 7b 03 03 3d ec 6b 33 be 9c a7 74 be
       0.011618522 0.03198574 -0.17521638 -0.23892063
0000f0 5d 78 47 3d ab 4f fc 3c cc ef 9b be b4 65 c8 3c
       0.04869877 0.030799707 -0.30456388 0.024462558
000100 fb 83 e4 bd 36 16 8f 3d 35 90 71 3d 1a a6 27 3d
       -0.11157986 0.06986658 0.058975417 0.04092989
000110 06 1a 2d be 78 e7 0e 3d fb 2d 80 3d 72 23 1e 3e
       -0.16904458 0.034888715 0.0625877 0.15443209
000120 86 c1 38 3c 52 ab 08 3e f3 7d d1 bc a9 09 72 bd
       0.011276608 0.13346604 -0.025572753 -0.059091244
000130 fd 17 15 3d bf b5 ac be 07 02 82 bb b4 d9 ad 3c
       0.03639983 -0.3373241 -0.003967527 0.021221973
000140 9d 75 5d 3d 67 cc 38 bd f6 5a 77 be 80 68 12 be
       0.054067243 -0.04511681 -0.24155793 -0.14297676
000150 d7 ae 26 3d 35 10 3e be 22 d6 18 be b8 5d 3f 3e
       0.040694084 -0.1856087 -0.14925435 0.18688095
000160 66 55 0e 3e 43 c5 b2 3d 85 56 a5 bc 9b a9 e2 bd
       0.13899764 0.08729031 -0.020182857 -0.11067506
000170 17 1b d9 be e8 8c b8 bd 51 85 4e be df a3 ea bd
       -0.4240348 -0.09011251 -0.20168044 -0.11457037
000180 7a d1 9f bd 1c e6 38 be 69 bd 6f be 37 40 03 3d
       -0.07803626 -0.1805653 -0.23412098 0.032043662
000190 e6 9b 00 be cb a6 90 bd 42 e0 a1 bd 7d 17 0e 3b
       -0.1255947 -0.07063063 -0.07904102 0.002168148
0001a0 76 cd a2 bd 8e 8f fb 3d 5e 5d 70 3d 62 9b e5 3d
       -0.07949345 0.1228324 0.058682792 0.112112775
0001b0 61 33 89 ba ee b8 c5 bd f6 3b 84 3d 7d 7b 2b 3d
       -0.0010467583 -0.09654413 0.06456749 0.041865814
0001c0 e5 30 38 be 42 f0 1b be db 66 94 3d 8d a0 55 bc
       -0.17987402 -0.1522837 0.072461806 -0.013038767
0001d0 32 1b 8c bd 5c 8e fe bd c2 42 ae be d9 00 df 39
       -0.068411246 -0.12429497 -0.34035307 0.00042534506
0001e0 b2 0c 0f 3e 5e a3 6a 3e 45 3e 16 bc fa b9 25 be
       0.13969687 0.22913882 -0.00917012 -0.16184226
0001f0 3b 14 8b 3d be eb c0 3d 38 e9 1d be b3 d2 7b be
       0.06790968 0.09419964 -0.15420997 -0.24592094
000200 7b 73 90 be ea da 4c 3e d4 91 f3 3d 3b 61 b0 3d
       -0.28213105 0.20005384 0.11893049 0.08612295
000210 5a 87 05 3e c0 b3 9d 3c ff 17 0a bd be c6 b8 bc
       0.13039914 0.01925075 -0.03371429 -0.022555705
000220 07 1d 39 be c7 ed fb bd 86 ea 39 3e 68 03 1f 3e
       -0.1807748 -0.12301212 0.1815587 0.15528643
000230 07 aa 46 3e 6d cf e2 bd f5 d1 43 3c a2 c3 34 3b
       0.19400798 -0.110747196 0.011951913 0.0027582427
000240 95 cc ff 3b 34 be 15 be b4 d8 be bd 33 aa b6 3d
       0.0078063705 -0.14623338 -0.093186766 0.08919182
000250 b1 c8 e9 bd 30 32 ea 3d 9c 60 22 3e ca 88 da 3d
       -0.11415232 0.11435354 0.15857166 0.10670622
000260 33 68 b7 bd 57 48 d0 bd e4 d1 dc be 87 75 66 be
       -0.08955421 -0.10170048 -0.43128884 -0.2250577
000270 c5 d9 c4 3c 6e e5 36 bd 5a dc 0c be a0 0f d2 3c
       0.024029622 -0.044652395 -0.13755932 0.025642216
000280 90 85 48 3d 0d 16 b5 3b 52 59 a5 3d 96 b2 f9 3c
       0.0489555 0.0055263103 0.08073677 0.030480664
000290 f5 29 9a b9 83 5b 2c 3d 47 4b e9 3d 5e be 18 3d
       -0.0002940443 0.04207946 0.11391311 0.037290923
0002a0 d7 f2 c1 bd 90 f3 9a bc a9 12 4c 3d d5 6f 12 be
       -0.09470146 -0.018914968 0.049822483 -0.14300473
0002b0 14 a0 a9 be 10 36 ae bd 41 98 40 bb 7e 67 0c bd
       -0.33129942 -0.08506405 -0.0029387625 -0.034278385
0002c0 5a 0f 01 be 76 52 80 bd 18 df d5 bd fe 6e 32 3c
       -0.12603512 -0.06265728 -0.104429424 0.01089072
0002d0 6a fa 3c be 74 57 90 bd a9 14 87 bd c9 67 00 3d
       -0.184549 -0.0704793 -0.065957375 0.031348977
0002e0 1c ff e1 3c fa 47 5d 3d df d3 84 3d e3 e6 c7 3c
       0.027587466 0.05402372 0.06485724 0.024402088
0002f0 d1 1d 84 3d 3f b5 e8 bb 53 f5 45 bc 63 39 92 be
       0.064509995 -0.0071016843 -0.012082416 -0.28559408
000300 77 34 6c 3d ef 13 dc bc f6 46 67 3c 29 11 a4 3d
       0.057667222 -0.026864974 0.0141160395 0.080110855
000310 6f 63 ab 3d fc 6c 0d 3e 23 ac 83 3d 04 15 e9 bd
       0.08368575 0.13811105 0.06429317 -0.113809615
000320 c3 0a 87 bd 05 1f a3 bd a1 62 88 3c f8 aa e0 bc
       -0.065938495 -0.07964901 0.016648592 -0.027425274
000330 a5 22 af 3d 4c 66 99 3d 96 02 db 3d 01 34 31 3e
       0.0855153 0.07490215 0.106938526 0.17304994
000340 97 c7 ab 3d 89 40 48 3d d9 eb ab 3d 8e 04 73 3d
       0.08387678 0.04888967 0.08394594 0.059330516
000350 30 77 d2 ba 22 01 45 3d 78 54 a0 bb 72 ba 20 3c
       -0.0016057249 0.048096783 -0.004892882 0.009810077
000360 0a 0e 29 3e 60 49 9d bc f3 52 df 3d 82 ff 03 3d
       0.16509262 -0.019200027 0.10904493 0.032226093
000370 4b 31 58 3d 6c 20 42 3d 17 75 c2 3d 22 ec e4 3d
       0.052781384 0.0473942 0.09494989 0.11177851
000380 ee eb 09 3d 16 a6 d9 bd 9a 37 12 3c 2f f4 75 3c
       0.033672266 -0.106273815 0.008924389 0.015011831
000390 07 68 29 3d 53 42 98 bc 2d 3a 33 bd 0d 1b 55 3d
       0.041358974 -0.018586313 -0.043756653 0.05202775
0003a0 cd 85 5b 3d 26 f6 04 3c 9c 32 b2 bd 31 aa 0a 3d
       0.0535944 0.008115327 -0.08701059 0.033853713
0003b0 ac 24 f7 bd 20 c7 05 3d 93 b6 12 3e 05 31 bd bc
       -0.120675415 0.032660604 0.14327459 -0.023094663
0003c0 10 52 89 bd f6 b0 59 3d d4 07 7e bd 7f d0 58 3d
       -0.06705105 0.05314728 -0.062019184 0.052933212
0003d0 4b f9 0a bd f9 82 c4 3c ca cf 1f bd a0 d5 28 bc
       -0.03392915 0.023988234 -0.039016522 -0.010304838
0003e0 e8 a0 c1 3d 0b f0 77 3c 57 d3 5d bd 4f a9 04 39
       0.094545186 0.015132914 -0.054156628 0.00012651573
0003f0 ee bb 36 3e 02 37 1f 3e d2 c1 78 3d b3 a2 b7 3d
       0.17845127 0.15548328 0.060731716 0.08966579

encoder_2.0.bias f4 [12]
000000 61 03 67 3d e7 c4 ac 3b 8b ce d8 bb 2f 8e 45 3c
       0.056399707 0.005272496 -0.0066164187 0.012057825
000010 c0 9f 9c 3b 5f c7 88 bd c1 c1 4f bd 8f 98 1f 3d
       0.004779786 -0.06678652 -0.050721887 0.03896385
000020 68 33 7d 3d 3e 48 d2 3c 33 45 3c 3d d3 a7 1f 3d
       0.061816603 0.025669213 0.04596443 0.03897841

encoder_3.0.weight f4 [12, 12, 3, 3]
000000 52 d1 2f 3e de 1e 2d 3e d9 69 a2 3d 92 b8 cd b9
       0.17169693 0.16906306 0.07930345 -0.00039238163
000010 75 ae 25 be 43 c8 6e bd e2 47 cf 3c 38 e6 14 bd
       -0.16179831 -0.058296453 0.025302831 -0.036352366
000020 62 c9 b7 bd 0e a8 70 bd 5f 72 44 bd 8a 21 06 3e
       -0.089739576 -0.05875402 -0.047960635 0.13098732
000030 e3 5a 3a 3e 6f a6 ac 3d cc b3 c6 3d d9 45 9f bc
       0.18198733 0.08430182 0.09702262 -0.019442486
000040 4e a5 cc bc e3 fd 39 bd 84 3e cb bd 86 93 93 3d
       -0.024981167 -0.04540814 -0.09924033 0.07205872
000050 be 91 3a bd ca fa 1f bc 3e a5 ab bd ca 6e ea bd
       -0.045549147 -0.009764383 -0.08381127 -0.114469126
000060 d8 f7 38 be 78 04 48 bd 50 e8 58 be bc 4a 8a bd
       -0.18063295 -0.048832387 -0.2118237 -0.06752536
000070 12 7b 4f 3c d9 1c 4e 3d 46 cd 14 be e8 f2 17 3d
       0.01266362 0.05032048 -0.1453143 0.037096888
000080 35 d1 d7 3d 9f 5e 10 bd f7 af c1 be 0a a9 21 be
       0.1053795 -0.035246488 -0.37829563 -0.1578714
000090 d5 d3 95 3d 48 b9 3a bd e8 33 c1 bd 0d 95 5b 3d
       0.073157944 -0.045586854 -0.094337285 0.053608943
0000a0 36 61 a3 bd 0e cc 99 3d 4d 56 d1 bc ae 0d ef 3c
       -0.07977526 0.075096235 -0.025553847 0.029181328
0000b0 6d 73 84 3d f4 28 69 bc 94 1b 2f bc f4 70 ac 3d
       0.06467328 -0.014230955 -0.0106877275 0.084199816
0000c0 1e c8 e0 3d c4 23 3a 3e d4 2a 7b 3d ab a2 72 3e
       0.10975669 0.18177706 0.06132014 0.23694865
0000d0 8c 52 4a be 7c ca 66 3e c7 3f 47 3e 58 d4 eb bd
       -0.19758052 0.22538179 0.19457923 -0.11515111
0000e0 10 46 7e 3e f2 34 63 3e e3 5e b7 be 7c f6 d1 bd
       0.24831414 0.22188166 -0.3581458 -0.10252091
0000f0 4c 05 22 3e 51 a6 ab be 72 f5 88 be 19 9f 99 be
       0.15822333 -0.33525327 -0.2674976 -0.30004194
000100 c6 d0 6e bd a9 6e e3 3c af 14 5d be 86 0c d0 bd
       -0.05830457 0.027762728 -0.21589921 -0.10158639
000110 cd 13 eb bc 6c a1 c8 bb f4 18 9a bd fb 08 2f 3d
       -0.028695965 -0.0061227586 -0.07524291 0.042733174
000120 4d 2e 82 3e 0f a5 e2 3d e8 b0 af bc 69 1e e4 bd
       0.2542595 0.11066639 -0.02144666 -0.11138613
000130 2a 49 ae 3d 0f c2 d3 bd 8f 2b f0 3d c8 60 94 3d
       0.08510049 -0.10339748 0.11727058 0.07245022
000140 97 0a 43 3d 2d 8a 6b be af 38 77 bc bc a6 b3 3d
       0.04761752 -0.23001929 -0.015089198 0.087720364
000150 de 7a 6b be 66 09 fb bd 2e 8a 22 bb ca df d4 be
       -0.22996089 -0.12257652 -0.00248016 -0.41576988
000160 81 16 f1 3c bb 1e c6 bd 93 13 bc 3d 13 86 f3 3d
       0.029429676 -0.0967383 0.09183421 0.11890807
000170 b0 fd 2a 3e 10 55 bd 3c e0 99 20 be 6e 24 1f 3c
       0.16698337 0.02311185 -0.15683699 0.009713275
000180 a2 e8 ca ba bf 07 2d be be f7 11 3d a6 06 6b be
       -0.0015480707 -0.16897486 0.035636656 -0.22951755
000190 af 1e 28 be cc 56 a2 bd b5 ed 01 be f3 04 92 bd
       -0.16417955 -0.079267114 -0.12688334 -0.0712985
0001a0 95 d6 38 3e 3b 99 2f bc 35 fd 3a 3d d2 32 2c be
       0.18050607 -0.010717685 0.045651633 -0.16816261
0001b0 5c ab a6 3b 6a 98 a2 3c 33 19 a3 3d 3b 19 24 bd
       0.0050863456 0.019848067 0.07963791 -0.040063124
0001c0 c3 36 49 be 54 51 83 bd a1 62 01 bf c2 0e 95 3d
       -0.19649796 -0.064119965 -0.5054112 0.072782055
0001d0 54 1d a2 3e 3c 63 ff bb 1c 0d ec bd c7 5f 03 3d
       0.31663 -0.007793812 -0.11525938 0.032073762
0001e0 05 b8 22 3e aa 6c 84 bd 0a ce 27 3e e8 58 ff 3d
       0.1589051 -0.064660385 0.16387191 0.124681294
0001f0 b9 c5 8e 3d 06 b3 75 bd a6 6f bb 3d fd 9f b2 bd
       0.06971306 -0.059985183 0.091521546 -0.087219216
000200 9a d5 f5 3c 5f 0c 01 3e 30 75 67 be e4 ac 9f 3d
       0.03000908 0.12602375 -0.22603297 0.07796648
000210 ac e9 c9 be f1 a8 03 3c 2f 86 85 be 52 b0 d7 bc
       -0.3943609 0.008035884 -0.26078936 -0.026329193
000220 d6 cd 0d bd 0f 01 2d be 19 1e 87 be 06 27 ae b9
       -0.03462013 -0.16894935 -0.2639015 -0.0003321694
000230 4f 96 12 bd 87 0c a9 be 09 5c d3 b9 af da 5f 3e
       -0.035787877 -0.3301737 -0.00040313628 0.21860765
000240 cb 59 83 3c 00 1e 02 be c3 1d 36 3d f8 de 63 3e
       0.016034028 -0.12706757 0.044461977 0.22253025
000250 9b 18 4a 3d 7c 22 9d 3b f6 ab 04 3e 18 eb 0b be
       0.04933987 0.0047953706 0.12956223 -0.136639
000260 34 a1 23 be 9f c1 08 be 5a 07 ab bc 97 b6 f4 bc
       -0.15979463 -0.1335511 -0.020877529 -0.029872222
000270 8c 20 81 3e c4 a3 25 3d 9a 07 f9 3d d3 e2 bb 3e
       0.25220144 0.040439382 0.12159653 0.3669649
000280 9b ea a0 bd 9d d0 37 be c8 0f 68 be 8b 9d 38 be
       -0.078572474 -0.17950673 -0.2266227 -0.18028848
000290 ed 72 98 3c 37 16 4d 3e 2b 4f 50 3d b5 c3 8a be
       0.018609488 0.20028006 0.05085675 -0.27102438
0002a0 bb 40 be bd 08 95 e9 be 0a 66 b6 3d b9 db f5 bd
       -0.0928969 -0.45621514 0.08906181 -0.120047994
0002b0 28 a9 85 bd 07 e8 25 3d df 0b 98 bd 77 e7 1e be
       -0.065264046 0.04050448 -0.07424139 -0.15517984
0002c0 fc 98 b3 be 31 57 63 be 00 f9 63 be db cc 52 3e
       -0.35077655 -0.2220123 -0.22262955 0.20585959
0002d0 de 4f 96 bc a7 cd 69 3c b2 7b da 3d c4 ef df bc
       -0.01834863 0.014270223 0.10668124 -0.027336009
0002e0 4e 07 7a bc f2 1a cc bb 3e d8 f1 bd 63 6b 1b 3d
       -0.015260531 -0.006228798 -0.11808823 0.03794421
0002f0 1c 66 93 bd f2 17 79 3d be 50 74 3d 4e 02 f5 bd
       -0.0719721 0.06081385 0.059647314 -0.1196333
000300 cb 42 21 be be 9c ac be ae 40 93 be 68 75 15 be
       -0.15748136 -0.33713335 -0.28760284 -0.14595568
000310 a8 46 fb be 60 0b 96 3c 2f 77 71 bd 18 69 1c be
       -0.49077344 0.01831597 -0.058951553 -0.15274465
000320 98 69 eb bd e5 27 47 be f6 16 ef 3c 83 74 89 be
       -0.1149475 -0.19448812 0.029185753 -0.26846704
000330 e2 4c e2 3d 92 2c 26 bf de 7e 17 bf 08 13 39 bc
       0.110498205 -0.6491176 -0.5917796 -0.011296041
000340 35 48 88 3d 4b eb 44 3c 2a aa 50 bd c9 ff f4 3c
       0.066543974 0.012018989 -0.05094353 0.029907124
000350 60 a8 57 3e 92 a3 a3 be a3 cb cf bd 21 69 3b 3e
       0.21060324 -0.31960732 -0.101462625 0.18301822
000360 49 29 a4 bd d3 f2 58 3e 9b 70 64 be cb a6 7e be
       -0.08015687 0.2118638 -0.2230858 -0.24868314
000370 23 bc 9d bd bc 40 14 bd ba eb d7 be e2 de 11 3c
       -0.077019 -0.036194548 -0.42172033 0.008903237
000380 f9 aa b8 3b 3a a4 3f bd 61 79 60 3e c4 a0 e7 3d
       0.005635616 -0.046787478 0.21921302 0.113099605
000390 2e bd 75 3e 29 c3 aa 3d 0f 1e ef 3d 6d f9 8b 3e
       0.23997948 0.08338005 0.11675655 0.27338734
0003a0 f8 f6 b9 be d0 b4 5d be d6 54 b3 be b0 ab d6 be
       -0.36321235 -0.21651006 -0.35025662 -0.41927862
0003b0 53 a0 65 3e ce d0 ed 3c a4 ec 97 3c 21 d6 74 be
       0.2242444 0.02903023 0.018545456 -0.23909809
0003c0 22 1d 2e be e4 f0 61 3e 13 71 f9 3d 8e d3 b7 3b
       -0.17003301 0.22064549 0.1217977 0.005609936
0003d0 d7 e0 ba 3c 23 7d 2e be f6 53 71 be 98 68 08 be
       0.02281229 -0.17039923 -0.23567185 -0.1332115
0003e0 d6 82 c1 be 9a 00 f0 bd 4c 76 a1 bc 90 86 ed 3c
       -0.37795132 -0.11718865 -0.019709729 0.028994828
0003f0 ea 6c 48 be 54 5d 83 bb 08 3c a8 3c 58 26 69 bd
       -0.19572797 -0.0040089283 0.020536438 -0.056921333

encoder_3.0.bias f4 [12]
000000 28 b4 61 3d 0c 19 7e 3d f8 ed 50 be 2a a3 b7 3d
       0.05510345 0.062035605 -0.20403278 0.08966668
000010 ef 61 14 be e5 f2 ee bd 8c b2 00 be e5 d1 8d 3d
       -0.14490484 -0.11667422 -0.1256811 0.069248
000020 f6 ca 3a be c7 36 69 bd d2 00 9a 3d 39 13 ec 3c
       -0.18241486 -0.056937005 0.07519688 0.02881776

inter_layer.0.weight f4 [12, 12, 3, 3]
000000 51 de b0 bd 7d b2 17 3e 75 00 05 bd 66 3f f0 39
       -0.086361535 0.14814182 -0.03247114 0.00045823603
000010 34 2b 83 3d 37 a3 8a be 18 7e 09 be 1b 42 94 3d
       0.06404725 -0.27077648 -0.13427007 0.07239171
000020 4a f9 e1 3d b3 8e a4 bd 23 ac 46 3e 49 92 80 be
       0.11033876 -0.0803503 0.19401602 -0.25111607
000030 91 fa d7 3d 40 bc a0 bd 3a aa 67 bd a5 f2 43 3e
       0.105458386 -0.07848406 -0.056558825 0.1913553
000040 cc e5 ed 3d 62 f1 75 be ff a2 45 bf e2 a5 37 be
       0.11616096 -0.24017861 -0.7720184 -0.17934373
000050 13 c4 d9 3e e4 5c df 3d cc 65 3c 3e 28 e7 1e 3e
       0.42532405 0.10906389 0.18398207 0.15517867
000060 39 c1 06 bf b4 a3 b8 be 8e d8 36 bf c6 f3 f4 3c
       -0.52638584 -0.36062396 -0.71424186 0.029901396
000070 19 42 c6 3d 04 49 54 bd be ea 14 3e 60 1d 3d bd
       0.09680576 -0.051827446 0.14542672 -0.046170592
000080 8e ce 9c 3e d4 ac 52 bb e5 98 80 3e 5f b5 a3 be
       0.3062634 -0.003214647 0.2511665 -0.31974313
000090 97 e7 87 3e 52 00 a5 bc 89 16 6a 3d 10 58 36 3e
       0.26543877 -0.020141754 0.057150397 0.1780703
0000a0 70 5c b9 3e 43 97 e3 3d 6c bb a8 3c a7 3b 26 bd
       0.36203337 0.11112835 0.020597182 -0.040584233
0000b0 de 2c d4 bd e2 de 11 3e b4 18 3d be 04 b7 7d be
       -0.1036012 0.1424518 -0.18466455 -0.24776846
0000c0 f8 2f 85 3d 48 b8 b0 3b 1c 04 a3 bc e5 d6 b6 3d
       0.0650329 0.005393062 -0.01989942 0.08927707
0000d0 3a b0 81 3e f7 44 a3 3d 47 e6 27 be 56 d4 a4 3e
       0.25329763 0.079721384 -0.16396438 0.3219325
0000e0 3e 7f 09 3e 93 d9 21 be 0e 3b 96 3c 58 4d 56 be
       0.13427445 -0.15805654 0.018338706 -0.20927942
0000f0 9e 60 f8 bd 49 72 06 3e c5 12 0c 3d 89 40 bf 3d
       -0.12127803 0.13129534 0.034197588 0.09338481
000100 53 99 15 3d a9 b0 2a bd f9 d5 ec bc b2 da 85 3d
       0.036523174 -0.041672383 -0.028910624 0.065358534
000110 3f bb 1d 3e 0d 84 a6 bc 6e c2 ec 3b 91 08 21 be
       0.1540346 -0.020326639 0.0072253263 -0.15725924
000120 68 66 91 3e bd 36 95 3d bc 6f 7c 3e 03 29 4b 3c
       0.28398442 0.07285831 0.24651998 0.012399915
000130 3f 0e 95 3e 8d be 08 bd db 0f 17 be 8d 95 ac 3e
       0.2911243 -0.03338485 -0.14752142 0.33707848
000140 07 25 d6 be 50 91 d5 3d 03 62 fe 3c 67 f2 9c bc
       -0.41825125 0.10428107 0.031052595 -0.019158555
000150 ea 4a 99 be 6f 2d d6 be ab 3d 0f bf 24 71 e1 be
       -0.29939967 -0.41831538 -0.5595347 -0.44031632
000160 52 07 d6 3e ff 04 ef 3c 17 0a 13 be ee bf f3 3d
       0.4180246 0.029177187 -0.14359318 0.11901842
000170 b7 1e 1b bd 4b 92 8f 3e c0 b8 19 3e 2c f0 6a 3e
       -0.03787109 0.280413 0.15011883 0.22943181
000180 c5 32 c3 bd 1b 8c 34 3e b0 00 ad bd 24 a9 99 3d
       -0.09531168 0.17631571 -0.08447397 0.07502964
000190 fb 79 5b 3d c1 7d b0 bd cb 24 d8 bd f5 5c a6 3c
       0.053583127 -0.08617736 -0.10553893 0.020307997
0001a0 db 36 ea 3a fd 93 68 be c2 fc 72 bd 6f a5 28 3e
       0.0017869131 -0.22712703 -0.05932308 0.16469358
0001b0 02 ec d2 3d 84 63 85 bc 40 14 e0 bd 17 23 5f 3e
       0.10298921 -0.016282804 -0.109413624 0.2179073
0001c0 da 9b a5 3c 0b 77 18 be d4 08 cb bc f6 64 ae bd
       0.020215917 -0.14889161 -0.024784483 -0.085153505
0001d0 07 47 a5 bd 2a f4 66 3d 04 75 c4 3c c1 46 5a be
       -0.08070188 0.056385197 0.023981579 -0.21316053
0001e0 8f 84 49 3e 67 92 e0 3d ee f0 5d be 38 99 df bd
       0.19679473 0.10965424 -0.21673939 -0.10917896
0001f0 4b 09 28 bd 34 00 1a bd 1f b1 43 be d8 f8 39 3e
       -0.041024487 -0.03759785 -0.19110535 0.18161333
000200 62 5c ad be bd 85 07 be 73 bf 72 3e a3 90 c3 bc
       -0.33859545 -0.13234611 0.23705845 -0.02387268
000210 f9 ef c4 be ec 99 e5 bd 65 43 56 3e f7 96 52 bd
       -0.38464335 -0.11210999 0.20924146 -0.051413503
000220 05 22 00 3e 81 dd 8a 3d ab 7f 82 3e 25 09 23 3e
       0.12512977 0.0678053 0.25488028 0.15921457
000230 e1 35 5e 3d 00 d0 52 3d d0 ef f3 3d aa f9 55 bd
       0.0542506 0.051467896 0.11910975 -0.05224005
000240 c0 04 ad bc 12 b0 e6 bd 33 f6 a4 3d ce cd a9 3c
       -0.021120429 -0.112640515 0.08054771 0.020728018
000250 b2 0d 2a be 54 3e 98 bd 25 eb 8d be db fa b0 3e
       -0.16606787 -0.07433763 -0.27718464 0.34566388
000260 1c a4 19 be ef 11 6e 3d c7 2a 88 3c 10 33 ea 3d
       -0.15004009 0.05812257 0.01662196 0.11435521
000270 fc 38 01 3e 64 40 13 be 55 3d 32 be 7d 3b 88 3e
       0.12619394 -0.14380032 -0.17406209 0.26607886
000280 dd f1 f3 3d 41 76 cc bd 78 54 d4 3d f1 13 03 3d
       0.11911366 -0.09983493 0.10367674 0.03200144
000290 50 bf e6 3d cf ce 64 3d 7e a4 33 be ea 3b c0 bc
       0.11266959 0.05586129 -0.17543218 -0.02346607
0002a0 f7 38 6f 3c ff 56 2e 3e a2 f6 40 3d 9a 6f a4 bd
       0.014600984 0.17025374 0.047110207 -0.08029099
0002b0 26 7a 00 3e 13 0f a6 3d 2d c6 60 3d 22 66 5e 3e
       0.12546596 0.08108344 0.054876495 0.21718648
0002c0 ac aa f6 3d 7d ff fc bc 61 fd 0a bd 64 b4 0f be
       0.12044272 -0.030883545 -0.033933047 -0.14033657
0002d0 0a f5 9b be f3 4b 89 3e 76 c7 bf bd 23 34 a4 bd
       -0.30460387 0.26815757 -0.09364216 -0.08017757
0002e0 f6 ca 6e bd 57 68 d6 3e 30 26 17 3e 9d 0a 93 3e
       -0.058299027 0.4187648 0.14760661 0.28719035
0002f0 29 66 1b 3e 3e a9 81 be 47 65 85 3d 98 6a 61 3e
       0.1517569 -0.25324434 0.06513458 0.22013319
000300 03 33 26 3d 8c ed 40 bd 68 41 ca 3c 19 19 b0 3c
       0.040575992 -0.047101542 0.024689391 0.021496342
000310 7c b3 38 3d b8 88 de 3d cf 20 92 bd 43 0c 1d bd
       0.045093045 0.10865921 -0.07135164 -0.03834177
000320 26 2e 52 be ca c6 e5 3c 91 4f 0e 3d a6 54 2c be
       -0.20525417 0.028048892 0.03474385 -0.16829166
000330 b5 9a 03 be 1f be 51 be 3f d5 7a bd 2c f6 29 be
       -0.12851985 -0.20482682 -0.061238524 -0.16597813
000340 f2 5d 97 bc 37 4c be 3d 18 fe ae bc a9 62 32 bd
       -0.018477414 0.092918806 -0.021361396 -0.04355112
000350 79 31 f6 bd 29 45 15 3b 2a c3 07 be 4d 77 37 bd
       -0.12021155 0.0022776818 -0.13258043 -0.04479151
000360 ab 68 8e 3d 62 d2 9d 3c 6f b7 ce 3c 47 34 09 3e
       0.069535576 0.019265357 0.025233952 0.13398848
000370 fe 16 d7 bc 1d 9a 37 3e 58 e2 5f be d9 5a 9e 3d
       -0.02625608 0.17929883 -0.21863687 0.077321716
000380 7d 20 9a 3d db 35 f5 bd cb 1f 3c 3e d9 43 03 be
       0.07525728 -0.11973163 0.18371503 -0.1281885
000390 f5 7b 04 3e 65 a8 01 3e 81 46 31 3d 30 32 57 be
       0.12937911 0.12661894 0.04328013 -0.21015239
0003a0 fd 00 21 3e 2f d7 5f 3d 0d b9 0f be 04 60 91 be
       0.15723033 0.054648574 -0.14035435 -0.28393567
0003b0 e3 11 ab 3d 9c ad 43 3e 33 27 13 be 9f 0a 0e bd
       0.08353021 0.19109195 -0.14370422 -0.034678098
0003c0 ff 5e 91 3d a9 d3 6c 3e 74 3e 25 3c 17 b8 95 3b
       0.07098197 0.23127617 0.010085691 0.0045690644
0003d0 e6 c7 17 3d 9a 05 6f 3d 36 bc 22 be 42 2d a5 3e
       0.037055872 0.05835495 -0.1589211 0.3226109
0003e0 63 c9 0e 3e 0f f9 b2 bd 8c c5 52 3e 62 4c 08 be
       0.1394401 -0.087389104 0.2058317 -0.13310388
0003f0 be f3 d3 3c e9 e6 6d 3c 1f 6b d9 be 0c 58 61 3e
       0.025873061 0.014520385 -0.4246454 0.22006243

inter_layer.0.bias f4 [12]
000000 c6 9b 5d be 8d 13 2f 3c a3 fe 86 bc fa 0e 9c bd
       -0.21641454 0.010685814 -0.016478842 -0.07620044
000010 0d 00 db bd 74 04 21 bd e1 a0 3c 3c d6 da 09 be
       -0.10693369 -0.039310887 0.011512966 -0.13462386
000020 fe e7 9d bd fa 10 78 bd 1a 5e dd bd 92 56 fd bb
       -0.077102646 -0.060563065 -0.10808964 -0.0077312673

decoder_3.0.weight f4 [24, 24, 3, 3]
000000 02 1e 7c be 62 ca 70 bc e7 14 82 3d 54 01 6e be
       -0.24620822 -0.014696689 0.06351643 -0.23242694
000010 8a 45 b4 bd b3 4a 52 3e 94 41 80 bb 5c 90 0a be
       -0.08802326 0.20536308 -0.0039140675 -0.13531631
000020 21 ea a2 bd 20 be 68 3d 73 cd d5 bd 24 45 31 be
       -0.07954813 0.056821942 -0.10439577 -0.17311531
000030 01 0a 54 3e d5 b4 bc 3d 82 95 1d bd 7f 2c 3b 3e
       0.20706941 0.092141785 -0.03847266 0.18278693
000040 a4 98 0b be 0f ac 34 3d f7 21 85 bd 1e 4a 92 bd
       -0.13632447 0.0441094 -0.06500619 -0.07143043
000050 90 31 a8 be ca bf 4d be 29 83 f7 bd 67 ef dd 3d
       -0.32850313 -0.20092693 -0.12085564 0.10836678
000060 12 7d 15 3d 45 bb ae bd e1 74 e7 3d 0e f7 8e 3e
       0.03649623 -0.085318126 0.1130159 0.27922863
000070 55 ee e1 3d 88 8b b9 3d d6 35 24 3e c6 13 51 bd
       0.11031786 0.090598166 0.16036162 -0.051044248
000080 13 a0 57 bd 5c 27 6e 3d b3 45 f4 bd ce a7 41 3e
       -0.052642893 0.058143005 -0.119273566 0.18911669
000090 ce f4 be bd 64 6d a9 bd be 63 f6 3d 3b 20 54 be
       -0.093240365 -0.08272818 0.12030743 -0.2071542
0000a0 9e 96 1e be 68 28 13 be c8 1a 8c 3e ef 0e 55 3e
       -0.15487143 -0.14370883 0.27364182 0.20806478
0000b0 9a 51 c7 bd 71 92 b7 bd 77 69 02 be f1 47 0c 3e
       -0.09732361 -0.08963478 -0.12735544 0.13699318
0000c0 ac af 82 3e 78 b8 8f 3c b3 1c 0c be 38 42 95 3e
       0.25524652 0.017544016 -0.13682823 0.29152083
0000d0 84 61 17 3e d4 0f ce 3b 2e 3b bc bd 43 42 96 3d
       0.14783293 0.006288508 -0.09190975 0.07336857
0000e0 ef e2 9c 3d 4a 6c 8e bd d5 a4 67 bd 7c 7c bd 3d
       0.07660472 -0.06954248 -0.05655368 0.09252259
0000f0 4d 53 17 bd ba 52 c6 bd 22 a4 5c bc b8 f6 02 be
       -0.036944676 -0.096837476 -0.013466867 -0.12789428
000100 e6 ae 88 3c 0f 61 56 be 85 ed 97 be f9 9e d4 bd
       0.01668496 -0.20935462 -0.296734 -0.10381884
000110 2e c8 f2 be 4a b1 be be 56 0a 68 be e9 8f a3 be
       -0.4741835 -0.37244636 -0.22660193 -0.31945732
000120 de e5 0f 3e cb 91 9d bc 6a 64 37 3d e1 5b b1 bd
       0.14052531 -0.019234559 0.044773497 -0.08660103
000130 0d 4f 41 3e 2b 4b c0 3c 73 50 cb 3c 7d ca 5d bd
       0.18877812 0.023473343 0.024818635 -0.054148186
000140 32 f6 6e be 86 e6 a0 3e d0 f3 23 3e a1 bf 2a be
       -0.23336104 0.31425875 0.16010976 -0.16674663
000150 02 9c 48 3e 8e 33 ce 3d c7 97 9a bd 06 52 a0 3d
       0.19590762 0.10068427 -0.075484805 0.07828145
000160 33 39 d9 3b e8 c7 97 3e 6b 71 2c 3d 76 67 72 bd
       0.006629133 0.29644704 0.04210035 -0.0591807
000170 38 17 62 bd 73 09 23 3d 05 c8 db 3c 1d 06 66 3d
       -0.055197924 0.039803933 0.026828775 0.056158174
000180 fe 45 56 3d 8e 3c c4 3c e0 5a c1 bb b3 f3 52 3d
       0.052312844 0.023954656 -0.0059007257 0.05150194
000190 1a 6c 3f 3d 06 2e 44 bc c7 fd 2d bb 57 49 d0 3d
       0.046733953 -0.0119738635 -0.0026548968 0.101702385
0001a0 65 c3 b1 3c 40 94 42 3d 63 59 57 3b 75 c7 46 bc
       0.021699617 0.047504663 0.0032859675 -0.012132515
0001b0 68 a6 ca 3d a6 c8 8b 3b f8 93 40 3d 49 cf b2 3d
       0.09895021 0.0042658625 0.047016114 0.08730943
0001c0 d7 aa 20 bd 96 61 3a bd 7a 66 96 3d 37 e5 fd bd
       -0.039225426 -0.04550322 0.073437646 -0.12397235
0001d0 2d c0 2c 3d 9d 6e 76 bd dd ec 97 3c ad 74 3f 3c
       0.04217546 -0.060164083 0.018545562 0.0116855325
0001e0 ff 7a a5 3c 8d e9 cb 3d 4a 8d 9f 3d 5a 00 15 be
       0.02020025 0.09956656 0.077906206 -0.14550915
0001f0 4d 53 27 3e c4 6d 4f be 51 77 05 3d e5 9f f4 3d
       0.1634037 -0.20256716 0.032584492 0.1194456
000200 b8 de 85 bd 82 9e 1f be ee 03 bc 3d 41 4b 66 3e
       -0.06536621 -0.1558781 0.09180437 0.22489645
000210 b5 a0 98 3d 0a fe 62 3d 0f 08 9b bd 71 55 bc bc
       0.074525274 0.05541805 -0.075698964 -0.02298996
000220 d9 e9 80 bc ef 55 13 3b 0b 7a b5 bd ab 03 e1 bd
       -0.015736507 0.002248164 -0.088611685 -0.10987028
000230 54 19 2b be 22 3c cd bd 72 dd 56 3d 63 07 b0 bd
       -0.1670888 -0.10021235 0.05245728 -0.08595159
000240 65 32 59 3d 76 f0 a0 bc 9c ce 9e 3c 87 c2 6a 3d
       0.053026576 -0.01964591 0.019385628 0.057314422
000250 2e fc 0c 3e 90 ee 8d 3b 36 f4 7f 3d ad 23 f9 bc
       0.13768074 0.0043314174 0.062488757 -0.03041252
000260 6b 0c 07 bc 49 f7 b5 3d 85 c4 84 3b ab 80 c4 3d
       -0.008242707 0.088850565 0.0040517473 0.09594854
000270 4b 49 ad 3c da 92 c5 3b 62 f1 a4 3c 91 38 8f bc
       0.021153113 0.006029469 0.020134632 -0.017483028
000280 8f 0f 81 bc c0 4a 54 3d dc c2 5a 3d df 57 4d bd
       -0.01575449 0.0518291 0.05340849 -0.05013263
000290 32 64 07 3d f8 25 5a bd 8b ec 08 bd df 92 d4 3d
       0.033054538 -0.053258866 -0.03342871 0.10379576
0002a0 f0 ec 1a 3d 61 b7 44 bd ab c7 9e bd 9d 7c 5a 3d
       0.037823617 -0.048026446 -0.077529274 0.053341497
0002b0 07 c2 72 bd a8 09 e6 3c 49 7a 3a 3d 10 f5 8c bd
       -0.05926707 0.028080776 0.045526776 -0.068826795
0002c0 77 34 9d 3c e6 10 b1 bb bb 71 5f be 83 05 39 be
       0.019190056 -0.005403626 -0.21820728 -0.18068509
0002d0 5d 29 e6 bb 88 80 ac 3d f7 6c 60 3d 65 35 f8 3d
       -0.007023974 0.08422953 0.054791417 0.12119559
0002e0 2a ab 48 3d 14 95 97 bb f0 eb 4b bc 6a 3a 27 3d
       0.04899136 -0.004625926 -0.012446389 0.040827192
0002f0 23 07 31 3d d8 04 a8 bd 26 04 34 bd b7 1f e1 bd
       0.043219697 -0.08204049 -0.04394927 -0.10992377
000300 b1 e1 7b bc 79 3a 1f be f1 06 a2 bc 07 9b 15 bd
       -0.015373633 -0.1554965 -0.0197787 -0.0365248
000310 4f ac 54 be 47 3d fb bd c6 65 91 3d 76 64 17 3a
       -0.20768856 -0.12267547 0.0709949 0.0005775163
000320 ed bf 08 3c 1d 02 14 3d 0c cd 22 3e 8d a7 56 3d
       0.00834654 0.036134828 0.15898532 0.052405883
000330 a1 43 98 3d 49 b3 03 bd 67 1d 00 be d2 c8 bc 3d
       0.07434774 -0.0321534 -0.12511216 0.09217991
000340 9e 28 3d bc 4e fd 91 3d 56 5a 84 3d 21 85 29 bd
       -0.011545328 0.07128392 0.06462543 -0.041386727
000350 e9 fe 33 be bc a4 2a 3a d8 e2 4e 3d 20 33 1b 3e
       -0.1757771 0.00065095327 0.050509304 0.15156221
000360 31 b2 a8 3e 67 86 8d bd c5 fd 22 be 66 19 39 3e
       0.3294845 -0.06910401 -0.15917118 0.18076095
000370 b5 de 32 3d 32 ce 47 3d 18 0e c6 bd 85 c7 79 3e
       0.04366942 0.048780628 -0.09670657 0.24392517
000380 a0 6f f5 3d 53 27 5d be 58 59 e2 bd e0 b7 01 3d
       0.119841814 -0.21597032 -0.11052197 0.031669497
000390 6b cd 33 be 1d 6e 24 3e d6 db a0 3e 96 d0 35 be
       -0.1755883 0.1605763 0.31417722 -0.1775535
0003a0 2f 6e 03 be 1d 02 46 3d cd b4 a4 3e f1 a7 44 bc
       -0.12835 0.04834186 0.3216919 -0.012002931
0003b0 cf 13 f2 3d f5 9b 2a 3e e3 bd 1d 3e e4 2f a6 3e
       0.118201844 0.16661055 0.15404467 0.32458413
0003c0 0d 14 08 bf 7a bf ff bd 4d 8a cc 3c 55 25 5b 3e
       -0.53155595 -0.12487693 0.02496829 0.2140096
0003d0 09 de 34 3e 12 c3 b7 bd 3f d6 87 3e f2 d2 10 be
       0.17662825 -0.089727536 0.26530644 -0.14142969
0003e0 ea 1e 9c be 32 82 4d ba 56 8e c8 be 7e a6 69 be
       -0.30492336 -0.000783953 -0.39171094 -0.22817418
0003f0 d1 39 54 3e 2c cf 23 3e b4 7f 01 be 1b f4 2c 3e
       0.2072518 0.15996999 -0.12646371 0.16889994

decoder_3.0.bias f4 [24]
000000 e4 35 c6 bc 91 6f 80 be 4c 56 98 3d 72 df 03 3d
       -0.024195619 -0.25085118 0.07438335 0.032195516
000010 98 7e 75 be 55 42 6a 3d 2a 04 00 3c 50 c6 be bd
       -0.23974073 0.057192165 0.007813493 -0.09315169
000020 1f c1 09 bd f2 40 98 bc 18 1f 30 be 5d af e2 bd
       -0.03363144 -0.018585656 -0.17199361 -0.11068604
000030 76 0b 60 bc 6d dc fc 3c 18 b4 c4 3d 83 b1 b6 bd
       -0.0136746075 0.030866826 0.09604663 -0.089205764
000040 16 d9 a0 3d 72 95 b5 3c 17 9d b5 3c 49 9c f0 bd
       0.07853906 0.022165988 0.022169633 -0.11748559
000050 d6 fc 57 3c 75 c3 19 3d d2 86 4f be 53 0c 20 be
       0.013182839 0.037539918 -0.20266274 -0.15629701

decoder_2.0.weight f4 [24, 36, 3, 3]
000000 6e 12 a2 bc 17 ce 17 3d 98 55 8a 3d b9 52 b4 bd
       -0.019784179 0.037061777 0.06754607 -0.088048406
000010 fb dc f5 bc 68 4e c0 3c f7 8f 64 bd f1 d2 62 bb
       -0.030012598 0.023474887 -0.055801358 -0.0034610594
000020 63 4a 83 3d a6 eb 2d be 32 9e 37 be 51 00 22 3e
       0.064106725 -0.16984424 -0.1793144 0.15820433
000030 34 ee ee bc bf 94 0d be 0f e5 db 3e e9 6a aa bd
       -0.029166318 -0.13826273 0.42948195 -0.08321173
000040 78 42 3c be 07 0d 41 3d 52 1d 0f 3e 17 31 a7 3d
       -0.18384731 0.047131564 0.13976029 0.0816366
000050 52 34 93 bd e2 f1 17 bd c7 84 5f bd 33 d5 1d 3d
       -0.07187714 -0.03709591 -0.054569986 0.0385334
000060 5d 53 42 bd 46 e6 eb bd fc 7f b8 3d e4 01 db 3d
       -0.047442783 -0.115185305 0.09008786 0.1069372
000070 76 c6 89 be 26 be 4d be da be 3e 3e ff e4 56 bd
       -0.26909226 -0.20092067 0.18627492 -0.05246448
000080 65 b3 4a 3d 59 c4 16 bb ff cc 8e be 19 0e 30 3d
       0.04948749 -0.0023005216 -0.27890775 0.042982195
000090 ce 88 88 bd 79 69 24 be 82 53 b9 3d 9e ac 37 3e
       -0.066667184 -0.1605586 0.09049131 0.17936942
0000a0 6d a9 ee 3d d5 fb bb 3d af fe 35 bd 0d 72 24 3e
       0.11653409 0.091788925 -0.04443234 0.16059132
0000b0 50 72 8b 3b 55 66 09 3e bb 64 7a be e7 1f 9c bd
       0.0042555705 0.13417943 -0.24452488 -0.076232724
0000c0 e8 d7 12 3e a8 16 f6 bd a9 8e 91 3d b5 b0 94 bd
       0.14340174 -0.1201604 0.071072884 -0.07260267
0000d0 84 a0 f3 bb 8f b9 2c 3d f0 69 b7 3d 6f 9d 85 bd
       -0.0074349064 0.04216915 0.08955753 -0.06524169
0000e0 c0 6b b9 3d c5 5d 92 3a e4 79 fc 3c 94 5f 02 3e
       0.09053755 0.0011166862 0.03081984 0.12731773
0000f0 8f e4 3e bd 0a 78 5c bc 3c fb 05 3b 0d f1 f8 3c
       -0.04660469 -0.013456354 0.0020443937 0.03038838
000100 3f bc 12 3d 33 64 a1 ba 19 d9 18 3d 35 ce 25 bb
       0.035824057 -0.0012313187 0.037316415 -0.002529991
000110 34 7a 62 3b 7c 7e 21 3d d6 b5 6e bd 30 9e 9d bc
       0.0034557702 0.039427266 -0.05827888 -0.019240469
000120 89 40 dd 3c 95 b0 85 bd 6d ea 11 3d ac 70 dc 3d
       0.027008312 -0.06527821 0.035623956 0.10763678
000130 af 2e 9c 3b bb 67 d3 bb fb 4a 10 bd c4 02 ab bd
       0.0047663073 -0.0064515746 -0.035227757 -0.08350137
000140 61 db 8c 3d 38 4d 6e 3c 17 cd 30 be 3c 71 96 3e
       0.06877781 0.014544778 -0.17265736 0.29383266
000150 66 8e a5 bd 57 16 00 be a9 a6 d6 bd 40 d2 86 3d
       -0.08083801 -0.12508522 -0.10481007 0.06583071
000160 37 4a 81 be f0 1c 64 3d d7 c4 4c 3d fd b7 d3 bd
       -0.25251934 0.05569166 0.04999241 -0.10337827
000170 58 b6 ed 3d 1c 72 99 3c 3b 32 e5 be e3 ac a3 bd
       0.11607045 0.01873117 -0.44764885 -0.0799196
000180 04 52 b3 3d b8 43 2c be b1 c3 47 be 73 0c 70 3e
       0.087558776 -0.16822708 -0.19508244 0.23442249
000190 84 8f cd bd a5 76 83 3e 1d ec e6 be 34 5d f2 be
       -0.10037139 0.25676456 -0.45102015 -0.47336733
0001a0 e0 7e 72 be 53 bb f9 be 4f 12 96 3d 07 c0 c2 3e
       -0.23681211 -0.4877573 0.07327711 0.3803713
0001b0 38 51 17 be d9 cd 33 3d 74 75 80 be fe 09 95 be
       -0.14777076 0.043897483 -0.2508961 -0.29109186
0001c0 49 f1 fb 3d 4c 04 9b bd b6 24 1c 3c 1e a4 38 bd
       0.12301881 -0.07569179 0.009530237 -0.04507839
0001d0 13 2e 6f bd 84 aa 81 be 3b 3b 91 bb e1 7b 97 3d
       -0.05839355 -0.25325406 -0.0044321097 0.07396675
0001e0 a9 d2 7a bd 57 82 02 bd 67 b1 27 3d f5 a5 4a bd
       -0.061236057 -0.031862583 0.04094067 -0.049474675
0001f0 0d 96 5e 3c 50 2b 7c bd f8 f3 d9 bd a1 bc 65 bd
       0.01358558 -0.061564744 -0.106422365 -0.056088094
000200 bd 4e 30 be 70 79 a0 bd 30 f6 0e 3e a0 db 97 bd
       -0.17217536 -0.07835662 0.139611 -0.07414937
000210 84 39 fb be b4 28 89 bd b7 45 80 3d 56 78 ee bd
       -0.49067318 -0.06697217 0.06263297 -0.11644046
000220 4b 48 60 bc 0b c1 1b bd ee 14 48 bd 06 00 37 3e
       -0.013689111 -0.038025897 -0.048848085 0.17871103
000230 7c c1 80 3d c1 31 46 be 18 00 2a 3e 75 d4 03 be
       0.06286904 -0.19354917 0.16601598 -0.12874015
000240 4a c2 94 bd 21 c7 88 bd 43 8c b4 bc 9b 91 79 3d
       -0.0726362 -0.06678606 -0.022039538 0.060929876
000250 83 3b c5 3c 99 ab 00 be 80 9f c9 bd 3f d5 86 3d
       0.024076229 -0.1256546 -0.09844875 0.06583642
000260 6b 78 06 bd 92 18 b2 bc 15 f8 bc bd 8f 84 19 3d
       -0.032829683 -0.021740232 -0.092270054 0.037479933
000270 71 db be bb 95 04 29 be 26 fc 24 3d 33 a5 cd 3c
       -0.0058244993 -0.16505654 0.04027953 0.025103187
000280 1c ec 00 3d 7e 8d 56 be 2e 5c 09 3e ea 70 2c 3e
       0.03147517 -0.20952412 0.1341407 0.16839948
000290 92 86 1b bf e6 2a 03 3d f4 5e 87 bc cc 12 8d be
       -0.60752213 0.032023333 -0.01652477 -0.27553403
0002a0 a1 6d cc bd c9 e4 1e 3b bf 29 d5 be 39 0b 12 3e
       -0.099818476 0.0024245253 -0.41633412 0.14262094
0002b0 de a3 4e bc c0 9e 1c 3c 74 e8 96 bb 7c 61 82 be
       -0.012612311 0.009559333 -0.0046053473 -0.25465
0002c0 ba 27 28 3e c7 16 aa 3e 8d 3b 87 3d f4 9f 84 be
       0.16421404 0.33220503 0.06603155 -0.25903285
0002d0 f5 f1 0a 3e 20 57 c3 bd 7b bc 72 be da 24 02 3e
       0.13568862 -0.09538102 -0.23704712 0.1270937
0002e0 34 aa 68 bd 0f ae d2 bd 51 3b 32 bd dd 1b 47 bd
       -0.056802943 -0.10287105 -0.0435136 -0.048610557
0002f0 4d d7 48 be 93 a8 b6 bc 79 5b d7 3d 95 e4 60 bd
       -0.1961338 -0.02229718 0.10515494 -0.054905493
000300 c7 1f cc 3d 18 c2 d7 3d 02 b6 a7 3c 7a 68 0e 3d
       0.099669985 0.10535067 0.02047253 0.034767605
000310 2c 2c 95 3d c0 0a e5 bd 99 ed 46 3e 68 9d a9 be
       0.07283816 -0.11183691 0.19426574 -0.33127904
000320 d4 6e 2c be ae 99 13 bd 72 c2 3d bf 03 87 92 be
       -0.16839153 -0.036035232 -0.74124825 -0.2861863
000330 c3 b2 c7 bd 8f f0 06 bf 7c ac 92 be 4f d9 e2 bd
       -0.09750893 -0.52710813 -0.2864722 -0.110766046
000340 98 b0 c7 3d 53 fe 65 be 0c 87 1b 3d 26 ff b2 3e
       0.097504795 -0.22460298 0.037970588 0.34960288
000350 9e a2 07 be 09 42 a5 be fd 71 0e be f0 3e 05 be
       -0.13245627 -0.32276943 -0.1391067 -0.1301229
000360 ed 85 bb bb cf cc fc 3d 4c 05 6c 3c 59 48 57 3e
       -0.0057227523 0.12343752 0.01440556 0.21023692
000370 6b b4 a0 3d de 5c 19 3d 93 5a cc 3c 85 ba b0 3c
       0.07846912 0.03744208 0.024945533 0.021573314
000380 93 a2 09 bd 50 e6 83 3d f2 13 d7 bc 56 4a 8f 3d
       -0.03360231 0.06440413 -0.026254628 0.069966
000390 bb 23 9c bd 87 ab 02 3e ab b6 a7 3b a6 7f 23 3e
       -0.076240025 0.12760745 0.0051182113 0.15966663
0003a0 87 fb a0 bd 67 f3 f9 bc 18 ef 2a bd 34 0a ca 3d
       -0.07860475 -0.030511571 -0.041731924 0.09865227
0003b0 22 24 8f bd 30 1e 93 be 90 a0 06 be 23 3f 8a bd
       -0.06989314 -0.2873397 -0.13147187 -0.067503236
0003c0 b4 a7 80 bd a2 1c 11 3e 1f 5d bc 3d 3f b8 ae bd
       -0.06281987 0.14171079 0.09197449 -0.08531236
0003d0 08 08 79 3c 69 e7 9a bd 80 6f 88 bd 12 ef 1d 3e
       0.015199669 -0.07563669 -0.06661892 0.1542323
0003e0 5f 26 a8 3d b5 6e c8 bd 3f 74 be 3d 1f 90 69 bd
       0.08210444 -0.09786741 0.09299516 -0.05702221
0003f0 0f ae bd 3c 99 c5 88 3d 5d a8 2b 3c 49 00 4f bb
       0.023154287 0.06678314 0.010477153 -0.0031585863

decoder_2.0.bias f4 [24]
000000 f2 df 5f bd bd 5b fd bc 6e e8 f4 3c ef 42 7f bb
       -0.05465693 -0.030927533 0.029895987 -0.0038949808
000010 4e a6 1f bd 1e 2d 57 bb 7b 67 04 bd 1d c0 95 3d
       -0.03897696 -0.0032833288 -0.03232525 0.07312033
000020 8d b8 28 3d 2e d7 c8 3b 0c 14 6b bc 16 91 0f 3c
       0.041191626 0.006129167 -0.014348041 0.0087626185
000030 de 5e 5a bc a8 f4 dc 3c b7 2e 1a bd ef 48 68 bd
       -0.013328282 0.02697213 -0.037642207 -0.05671018
000040 d3 10 91 3a 29 59 59 bd fa 43 a5 3d f2 ca 0a bb
       0.0011067636 -0.053063545 0.08069606 -0.0021178094
000050 8a 87 55 bd 68 36 66 3c f0 40 99 bc 50 83 40 bd
       -0.052131213 0.014051057 -0.018707722 -0.04700023
